Results/Archive_NNfile/pretrain_opt_6_new.pt (torch, 25227 bytes, 7 tensors)

net.0.weight f4 [48, 13]
0	0x3ce2dda7	0.027693583
1	0xbe3d5f11	-0.18493296
2	0x3e2c367c	0.16817659
3	0xbdcec41c	-0.10095999
4	0xbe1ede76	-0.1551455
5	0x3e1a549e	0.15071341
6	0x3e493ca6	0.19652042
7	0xbe62ca20	-0.22147417
8	0xbe37c890	-0.17947602
9	0x3e6e6946	0.23282346
10	0xbe6f54d1	-0.23372199
11	0xbdde47fa	-0.10853572
12	0x3e74d4ec	0.23909348
13	0xbe23ccec	-0.1599614
14	0x3dbad5a2	0.091227785
15	0xbd4c39f4	-0.049859956
16	0xbe18240c	-0.14857501
17	0xbddc3f6e	-0.10754286
18	0x3dea12b4	0.114293486
19	0xbea0540b	-0.3131412
20	0x3d0edf83	0.034881126
21	0xbd5b9d96	-0.053617083
22	0x3e67391a	0.22580376
23	0xbe11004f	-0.14160274
24	0xbd4487a6	-0.047980927
25	0xbe0a3d89	-0.13500036
26	0x3dd0e2eb	0.10199531
27	0x3e0cbffb	0.1374511
28	0xbca98742	-0.020694379
29	0x3e1bbf9e	0.15209815
30	0xbd816f97	-0.06320112
31	0xbe72b78f	-0.23702835
32	0x3e54352c	0.20723408
33	0xbda94d9b	-0.08266755
34	0xbdc38e94	-0.09548679
35	0xbdc64f15	-0.096830525
36	0xbe13c2b9	-0.1442975
37	0xbc45bcb1	-0.012068913
38	0xbe192bbb	-0.14958088
39	0xbc11ce89	-0.0088993395
40	0xbd5da6a5	-0.054114003
41	0x3dc6037f	0.096686356
42	0xbea75209	-0.32679775
43	0x3c09d8fd	0.00841355
44	0x3e2d233f	0.16907977
45	0xbed50c91	-0.4161115
46	0x3d6337df	0.055473205
47	0xbe1001c8	-0.1406318
48	0xbe95fe4e	-0.29295582
49	0xbe9cf39f	-0.30654618
50	0xbed12c07	-0.40853903
51	0x3c1a3a4e	0.009413315
52	0x3dae1b6a	0.085013226
53	0x3e448af3	0.1919363
54	0x3e80a907	0.25128958
55	0x3e60e7e6	0.21963462
56	0xbe670130	-0.22559047
57	0x3e9d9b12	0.30782372
58	0x3dc1b7df	0.09458899
59	0x3e817671	0.25285676
60	0x3e661268	0.22467959
61	0xbcb36ca4	-0.02190239
62	0x3d25bfef	0.040466245
63	0x3e514c69	0.20439304
64	0x3e3330c1	0.17499067
65	0x3ea4842a	0.32132083
66	0xbbd97536	-0.006636287
67	0x3dc48b62	0.09596898
68	0xbd53e8bd	-0.05173563
69	0xbce59803	-0.028026586
70	0xbe29bf5b	-0.16576903
71	0xbc4fbf33	-0.012679863
72	0x3dcf65ba	0.10126825
73	0x3e2cf4b5	0.16890223
74	0x3e264794	0.16238242
75	0xbe3414cd	-0.1758606
76	0x3c6de216	0.014519235
77	0xbe49c59b	-0.19704287
78	0xbba45de5	-0.005016076
79	0x3e3d19d2	0.18466881
80	0xbc67ec9d	-0.014155534
81	0xbe89b1c9	-0.26893452
82	0x3deb547b	0.11490723
83	0x3cf8f870	0.030391902
84	0x3d0011c3	0.03126694
85	0x3cf867cd	0.030322934
86	0xbe6ea46d	-0.23304911
87	0xbe71f83f	-0.23629855
88	0xbe82380c	-0.25433385
89	0x3e6f15b0	0.23348117
90	0xbe7d7d37	-0.24754797
91	0xbe3b316f	-0.18280576
92	0xbd8bc9ab	-0.068255745
93	0x3d704ce0	0.058667064
94	0xbe568ff5	-0.20953353
95	0xbe36967b	-0.17830841
96	0xbd4a95e7	-0.049459364
97	0x3da1b601	0.078960426
98	0xbe83b317	-0.25722572
99	0x3e8216e7	0.25408098
100	0x3e889693	0.2667738
101	0xbe1ec610	-0.15505242
102	0x3d800d42	0.06252529
103	0xbe85820d	-0.26075783
104	0xbdfa9f80	-0.122374535
105	0xbe4cae2e	-0.1998832
106	0x3e2a3c9b	0.16624682
107	0x3d0b2e62	0.03397978
108	0xbe0b1c1f	-0.13584946
109	0xbe69fd55	-0.22850545
110	0x3dde4e55	0.108547844
111	0x3d9bc0f4	0.07605162
112	0xbe69fc2a	-0.22850099
113	0xbd9b006f	-0.07568442
114	0xbc9e9fa9	-0.019363241
115	0x3e42c2b7	0.1901959
116	0x3e7c267d	0.24624057
117	0xbe5487e7	-0.20754968
118	0xbdf0cca0	-0.11757779
119	0xbe765c8e	-0.24058744
120	0xbd5b6f9f	-0.053573247
121	0x3e96058d	0.2930111
122	0xbc35a920	-0.011087686
123	0x3cfd8f0e	0.030952003
124	0xbed2a16a	-0.41138774
125	0x3d91f087	0.07125955
126	0x3e33968e	0.17537901
127	0x3e8d0064	0.2753936
128	0xbe4a02f3	-0.19727688
129	0x3e348a52	0.1763089
130	0x3d2dbf69	0.04241887
131	0xbd12a821	-0.03580487
132	0xbec0a589	-0.37626293
133	0xbd5b44bd	-0.05353235
134	0x3d2cbbcf	0.042171296
135	0x3eacf7a8	0.33782697
136	0x3c266037	0.010154775
137	0xbe65e09c	-0.22448963
138	0x3d095ccf	0.033535775
139	0x3c15287f	0.009103893
140	0x3d8b3626	0.06797437
141	0xbd8002aa	-0.06250508
142	0x3e18eb6e	0.1493356
143	0xbe5ba510	-0.21449685
144	0xbe4d9fae	-0.20080444
145	0xbd740a7a	-0.059580304
146	0x3e6168c1	0.22012617
147	0xbc6c86a7	-0.0144364005
148	0xbe924a2d	-0.28572217
149	0x3df7d9a2	0.12102057
150	0x3e3e5219	0.18586005
151	0xbd5e889a	-0.054329492
152	0x3e808e02	0.25108343
153	0xbdc453c7	-0.09586292
154	0x3e1568ec	0.14590806
155	0xbda8a519	-0.08234615
156	0x3c593c04	0.013258938
157	0x3cff8b06	0.031194221
158	0x3c333e40	0.0109401345
159	0xbe7fe130	-0.24988246
160	0xbdb13941	-0.086534984
161	0xbd020456	-0.031742416
162	0xbe8f36a8	-0.27971387
163	0xbe008de1	-0.12554123
164	0x3cca299c	0.024678044
165	0xbe921ebc	-0.28539073
166	0xbda21de2	-0.07915856
167	0xbe98b11f	-0.29822633
168	0xbdbdf31f	-0.09274887
169	0x3e8c88e9	0.27448204
170	0xbcb0524b	-0.021523615
171	0x3df6546e	0.120278224
172	0xbe12d8a1	-0.1434045
173	0x3e1e65c0	0.15468502
174	0x3e130c32	0.14360121
175	0x3d91b5c0	0.07114744
176	0x3e102e98	0.14080274
177	0xbd6f8472	-0.05847592
178	0x3e89b1d7	0.26893494
179	0x3e17dd8b	0.14830606
180	0xbd2f96d0	-0.042868435
181	0xbacd91ff	-0.0015683769
182	0x3e120e2f	0.14263223
183	0x3e7c8b2c	0.24662465
184	0xbe7d95d3	-0.24764185
185	0x3e0ac3f4	0.13551313
186	0xbe571c41	-0.21006872
187	0x3da1396e	0.07872282
188	0xbdf8110c	-0.121126264
189	0x3e069463	0.13142543
190	0x3e320afb	0.17387001
191	0x3e69e054	0.2283948
192	0x3d14ef69	0.03636113
193	0x3e5f2e23	0.21794944
194	0x3e27368e	0.16329405
195	0xbe6092d1	-0.21931006
196	0x3e7792ac	0.24177045
197	0xbe3e7051	-0.18597533
198	0xbe159e92	-0.14611271
199	0x3e398914	0.18118697
200	0xbde7599d	-0.11296389
201	0x3d22b262	0.0397209
202	0x3e090c9b	0.13383715
203	0x3e27a2a2	0.16370633
204	0x3dfbec2a	0.12300904
205	0x3e084b96	0.13310084
206	0x3d6719ce	0.056421094
207	0x3d8bd9f5	0.068286814
208	0xbe8440be	-0.25830644
209	0xbc2e1fc8	-0.010627694
210	0xbdec2b6b	-0.11531719
211	0x3e8ab570	0.2709155
212	0x3dae0314	0.08496681
213	0xbccb13c5	-0.0247897
214	0xbe8b6e8e	-0.27232784
215	0xbe2220db	-0.15832846
216	0x3cd7b00d	0.026329065
217	0xbc50a76b	-0.012735228
218	0xbb9cf8a5	-0.004790383
219	0xbd32b47c	-0.043629155
220	0x3bd7da15	0.0065872767
221	0x3e0a17ed	0.1348569
222	0x3df8756b	0.12131771
223	0x3dfd83b8	0.12378639
224	0x3e7b05d6	0.24513945
225	0x3e1632b9	0.14667787
226	0x3e61c80d	0.2204897
227	0xbda5fd93	-0.08105006
228	0x3dcfa9a7	0.101397805
229	0xbde41d10	-0.11138356
230	0x3e6d470b	0.23171632
231	0x3e45c75c	0.19314331
232	0xbb0d54e2	-0.0021565487
233	0x3e02ded3	0.12780313
234	0x3e3373ba	0.17524615
235	0xbdfdf3a9	-0.1239999
236	0x3d273b06	0.040827774
237	0x3e0693ac	0.1314227
238	0xbe707263	-0.23481135
239	0xbec768a0	-0.3894701
240	0xbe679306	-0.22614679
241	0x3dad5150	0.08462775
242	0x3d8b3138	0.06796497
243	0xbd245a83	-0.04012538
244	0x3e84fc68	0.2597382
245	0xbe2f241f	-0.17103623
246	0xbd482129	-0.04885975
247	0xbdb5fd35	-0.08886186
248	0x3dd5e233	0.10443535
249	0xbe45b301	-0.19306566
250	0x3e635d51	0.22203566
251	0xbe0b334e	-0.1359379
252	0xbc8484f4	-0.016176678
253	0x3d7d385b	0.061821323
254	0xba30fc7c	-0.00067514903
255	0x3e804815	0.25054994

net.0.bias f4 [48]
0	0xbe741903	-0.23837666
1	0x3e8f2603	0.27958688
2	0xbe0ff785	-0.14059265
3	0x3e196d33	0.14983062
4	0x3e753ab9	0.23948182
5	0xbd565efb	-0.052336674
6	0xbdb14468	-0.086556256
7	0xbe320a0b	-0.17386644
8	0x3d917686	0.07102685
9	0x3d2e9b2d	0.042628456
10	0x3d359bfd	0.044338215
11	0x3e490fdc	0.19634956
12	0x3d9ecb11	0.077535756
13	0x3e2b11e7	0.16706048
14	0x3dcce57b	0.100047074
15	0xbe18cac1	-0.14921094
16	0xbe4ea459	-0.20179881
17	0xbeacb6b7	-0.3373315
18	0x3d6b9188	0.057511836
19	0x3d958457	0.073006324
20	0x3d129426	0.035785817
21	0xbe853363	-0.26015767
22	0xbe49a3d4	-0.19691402
23	0x3e3bae9f	0.18328331
24	0xbe8c0d70	-0.27354002
25	0x3e37f084	0.17962843
26	0x3dbcf8f3	0.09227171
27	0x3e3ed4ec	0.18635911
28	0x3df626ed	0.12019143
29	0xbe12a84e	-0.14322016
30	0x3d0fb51f	0.03508484
31	0xbd5701dc	-0.052492008
32	0x3bcb3514	0.0062013958
33	0xbd80600f	-0.06268322
34	0x3e27daaf	0.16392015
35	0x3dff9387	0.124793105
36	0x3e323cf5	0.17406066
37	0x3d30c963	0.043160807
38	0xbe859270	-0.26088285
39	0xbe5893d8	-0.21150148
40	0x3e165219	0.14679755
41	0xbce61dbc	-0.02809035
42	0xbd687aca	-0.056757726
43	0x3c6fb6cb	0.014630984
44	0x3d32b3b4	0.04362841
45	0x3e84634a	0.25857002
46	0x3e6ea46e	0.23304912
47	0x3e12c711	0.1433375

net.2.weight f4 [48, 48]
0	0xbae776ba	-0.0017659285
1	0x3daf347f	0.08554935
2	0xbd989160	-0.07449603
3	0x3dee842e	0.11646305
4	0x3e01d358	0.12678277
5	0xbedc5cad	-0.43039456
6	0xbc89cfac	-0.016822658
7	0x3d1dca5d	0.038523067
8	0xbc39a7d7	-0.01133152
9	0x3bd5f971	0.00652998
10	0x3d949ed8	0.072568595
11	0xbdf01614	-0.11722961
12	0x3eafe25c	0.34352386
13	0xbd3d216f	-0.046174463
14	0xbdfb976a	-0.12284739
15	0x3d0b09b7	0.03394481
16	0x3db3ef03	0.08785822
17	0x3da112da	0.07864924
18	0xbe0e7fca	-0.13915935
19	0x3d360fda	0.04444871
20	0xbd54a621	-0.051916245
21	0x3dcf0752	0.10108818
22	0x3d7f48bf	0.062325235
23	0x3bbd94ae	0.0057855463
24	0xbd3ee601	-0.046606068
25	0xbf132ecb	-0.57493275
26	0xbc85c689	-0.01633002
27	0x3e1a34f0	0.15059257
28	0xbee628fe	-0.4495315
29	0xbb62bf15	-0.0034598757
30	0xbe042f50	-0.12908673
31	0x3de771c1	0.11300994
32	0xbb84019b	-0.0040285117
33	0xbdc2537d	-0.094885804
34	0xbc42940b	-0.0118761165
35	0xbe0a3639	-0.13497247
36	0xbdb585c9	-0.08863408
37	0x3df33fcd	0.118774034
38	0xbdb5a748	-0.08869797
39	0xbd20144b	-0.039081853
40	0xbd4dbbff	-0.050228115
41	0xbc6ba384	-0.014382247
42	0x3df544ae	0.1197599
43	0x3d4cfd9e	0.050046556
44	0x3c77826d	0.0151067795
45	0x3e0f0ffa	0.13970938
46	0x3e009ad3	0.12559061
47	0x3d10ec49	0.03538159
48	0xbdc78967	-0.09743004
49	0x3d2f1d11	0.04275233
50	0xbdaf330a	-0.08554657
51	0xbd0b35f7	-0.03398701
52	0xbd93dc09	-0.07219703
53	0x3d8d7e46	0.0690885
54	0x3e0af979	0.13571729
55	0xbd6ab7f2	-0.05730433
56	0x3d7c6043	0.06161524
57	0xbd5ca820	-0.053871274
58	0x3e13310e	0.14374182
59	0x3df8208f	0.12115585
60	0xbccf5c20	-0.025312483
61	0x3e1d5e01	0.15367891
62	0x3d95b09d	0.07309077
63	0xbdbce33c	-0.09223029
64	0xbea12782	-0.31475455
65	0x3e1733e9	0.14765896
66	0xbd97fcdf	-0.07421278
67	0xbdadf315	-0.0849363
68	0xbde575c6	-0.11204104
69	0xbd8c4f91	-0.068511136
70	0xbd846837	-0.0646519
71	0xb98d06a2	-0.00026898558
72	0x3e01d882	0.12680247
73	0xbd0e6332	-0.03476257
74	0x3d3f313d	0.046677817
75	0xbe043a60	-0.12912893
76	0xbdc41395	-0.095740475
77	0xbcdde534	-0.027086832
78	0xbe068f79	-0.13140668
79	0xbd7345dd	-0.0593928
80	0xbda2d7cd	-0.07951317
81	0x3dd630bd	0.10458515
82	0x3e165dcb	0.14684217
83	0xbe01263a	-0.12612239
84	0xbacb0180	-0.0015488118
85	0xbde54d92	-0.11196436
86	0x3e12690b	0.14297883
87	0x3c426cd3	0.011866766
88	0x3c8c905e	0.017158683
89	0x3de50e23	0.11184337
90	0x3c9bc181	0.019013168
91	0xbdae5a05	-0.085132636
92	0xbdc50102	-0.09619333
93	0x3d59f360	0.053210616
94	0x3e03379e	0.12814185
95	0x3d86dbae	0.06584869
96	0xbda89edd	-0.08233426
97	0x3e2270d1	0.15863349
98	0x3dc8981f	0.0979464
99	0x3d396805	0.045265216
100	0xbd31f582	-0.043447025
101	0xbc8e0251	-0.017335089
102	0x3c807477	0.015680535
103	0xbd9be695	-0.076123394
104	0x3deeba2f	0.116566055
105	0xbdae4a0b	-0.08510216
106	0x3d1f1b13	0.03884418
107	0x3d2f4508	0.042790443
108	0x3dbf9c4e	0.09355985
109	0xbc7b1964	-0.015325878
110	0xbd30fce6	-0.043209933
111	0xbe88f0f2	-0.26746327
112	0xbd61405d	-0.054993022
113	0xbe2c8972	-0.16849306
114	0xbd7d35ae	-0.06181877
115	0x3dbbbaa0	0.09166455
116	0x3d8705ea	0.06592925
117	0xbd64feaf	-0.055906948
118	0xbd944f14	-0.072416455
119	0x3de04b13	0.10951819
120	0xbcf2a5ba	-0.02962004
121	0x3d79bcce	0.060971074
122	0x3cf82a8d	0.030293727
123	0x3cc74e22	0.024329249
124	0x3e0d7f77	0.13818155
125	0x3daeb8a7	0.085313134
126	0xbd899c9e	-0.067193255
127	0xbc190216	-0.009338876
128	0xbd93705a	-0.07199164
129	0x3dc07de0	0.09399009
130	0xbdb3e0f8	-0.08783144
131	0xbd0609aa	-0.03272406
132	0xbcdcf316	-0.026971381
133	0xbd8d7bf9	-0.069084115
134	0xbc01fa36	-0.00793319
135	0xbe2733a3	-0.16328292
136	0x3d5ccc4b	0.053905766
137	0xbcce207e	-0.025161978
138	0xbc9d9765	-0.01923723
139	0xbdb35a9d	-0.087575175
140	0xbd6a6ee2	-0.057234652
141	0xbcdcb41e	-0.026941355
142	0x3d72e507	0.05930045
143	0x3e29e535	0.16591342
144	0x3d753c82	0.059872158
145	0x3c33f8d7	0.010984621
146	0x3e0e7416	0.13911471
147	0x3c15516c	0.009113651
148	0xbdf4fa11	-0.11961759
149	0x3d17c6a9	0.03705469
150	0x3de6d6c0	0.11271429
151	0xbd851f17	-0.065000705
152	0x3ccf8cd3	0.025335705
153	0xbe134c5a	-0.14384595
154	0xbb8b2a1f	-0.0042469646
155	0x3df115ee	0.11771761
156	0x3e003693	0.12520818
157	0xbdfbf3b2	-0.123023406
158	0xbe10dbfe	-0.1414642
159	0xbda0effc	-0.078582734
160	0x3de2c245	0.1107221
161	0x3cf866f2	0.030322526
162	0xbd851100	-0.06497383
163	0x3db596c1	0.08866645
164	0xbdcba6b1	-0.09943903
165	0x3db54bea	0.0885237
166	0xbdcdde4f	-0.100521676
167	0xbdc727d8	-0.097243965
168	0x3dd83116	0.105562374
169	0xbdab8595	-0.08375088
170	0x3e136bcf	0.14396594
171	0xbe04773b	-0.12936108
172	0x3d98b591	0.07456506
173	0x3e0b373b	0.13595288
174	0xbdfffb57	-0.12499111
175	0xbda27ab4	-0.0793356
176	0xbd7eaa2d	-0.06217401
177	0xbd61729f	-0.05504095
178	0xbcddb3f3	-0.027063346
179	0xbd87c995	-0.066302456
180	0xbe1237c7	-0.1427909
181	0xbe1175fa	-0.1420516
182	0xbe06a1d5	-0.13147672
183	0xbd6bfe0a	-0.057615317
184	0xbda876b4	-0.08225766
185	0x3d8329d6	0.06404464
186	0x3e0ce6e0	0.13759947
187	0xbd2753d1	-0.040851418
188	0x3d73b9f9	0.05950353
189	0x3e1325bb	0.14369862
190	0xbde288c2	-0.11061241
191	0xbc1dcc8c	-0.009631287
192	0x3da2c375	0.07947437
193	0xbd1a9332	-0.037738033
194	0xbdc1b15b	-0.09457656
195	0xbdd2ed3e	-0.102991566
196	0xbc64b160	-0.013958305
197	0xbe1b2faf	-0.15154909
198	0xbdeca2cb	-0.11554488
199	0xbce95c61	-0.028486433
200	0x3df0c16b	0.117556415
201	0x3df1da34	0.11809197
202	0x3d482ed3	0.04887278
203	0xbd83fa3b	-0.06444212
204	0xbdafbd1a	-0.0858099
205	0xbe085b1c	-0.13316005
206	0xbcf67ba1	-0.030088248
207	0xbd771a42	-0.060327776
208	0x3c02925c	0.007969465
209	0x3cd90976	0.02649377
210	0x3de2adfe	0.110683426
211	0xbd5f4297	-0.054506864
212	0x3c9f7f54	0.019469894
213	0x3cd8ddf7	0.026473029
214	0x3df56d80	0.11983776
215	0xbdb263a6	-0.08710413
216	0x3dad996c	0.084765285
217	0xbdbe82cd	-0.09302292
218	0x3bd70b8e	0.0065626567
219	0xbdade8b0	-0.08491647
220	0xbe136eee	-0.14397785
221	0x3ce8d3cd	0.028421307
222	0x3d8f31e6	0.06991939
223	0x3dc132da	0.09433527
224	0xbe05f37a	-0.1308116
225	0x3cb5c351	0.02218786
226	0x3df037be	0.11729382
227	0x3d7ffc47	0.06249645
228	0x3d9fc4c8	0.07801205
229	0xbdeb209a	-0.11480828
230	0x3c481dbb	0.01221412
231	0x3dc45a79	0.09587569
232	0xbda0911d	-0.07840178
233	0xbd3e736a	-0.046496786
234	0xbdbe788d	-0.09300337
235	0xbd18fc6c	-0.037350103
236	0xbc53e70a	-0.012933502
237	0x3b6609c5	0.0035101038
238	0x3d966140	0.07342768
239	0x3d5ce619	0.053930376
240	0xbdcea921	-0.100908525
241	0x3daa0f5b	0.0830371
242	0xbbcc8449	-0.0062413556
243	0x3dec87e7	0.11549359
244	0xbce19dc5	-0.02754105
245	0xbc45beee	-0.012069447
246	0xbe04e3f4	-0.12977582
247	0xbe0593d2	-0.1304467
248	0x3d5a68ed	0.05332272
249	0x3c6af99e	0.01434174
250	0xbd42228c	-0.047396228
251	0x3dbc3235	0.09189264
252	0x3dba9a2c	0.09111437
253	0xbe05f445	-0.13081463
254	0xbde62b74	-0.11238757
255	0xbd80f230	-0.062961936

net.2.bias f4 [48]
0	0xbdc42550	-0.09577429
1	0xbdca45ca	-0.098765925
2	0x3cf84aa1	0.030309023
3	0xbd703c45	-0.058651228
4	0xbe06878c	-0.13137645
5	0x3e0dffec	0.13867158
6	0x3da5330c	0.08066377
7	0x3dd2b662	0.10288693
8	0xbdc7d232	-0.097568884
9	0xbdb3aec4	-0.08773568
10	0x3d12875c	0.03577362
11	0x3c5d7e39	0.013518863
12	0x3c56c14c	0.013107609
13	0x3cab9375	0.020944336
14	0x3dbb4b1f	0.091451876
15	0x3d2bc460	0.041935325
16	0x3c538063	0.012909028
17	0x3de84709	0.11341674
18	0x3dc8190c	0.09770402
19	0xbc1e9072	-0.009677993
20	0x3c6b3da9	0.014357963
21	0xbe1bba52	-0.15207794
22	0x3db7689a	0.08955498
23	0x3d8cea92	0.06880678
24	0xbde70e9a	-0.11282082
25	0xbd06c848	-0.032905847
26	0xbd9eee53	-0.077603005
27	0x3d3d0632	0.046148486
28	0xbde8a6a1	-0.11359907
29	0xbd8ecac8	-0.06972271
30	0xbcbac0ae	-0.022796955
31	0x3e01010b	0.12598054
32	0xbe0e6a4d	-0.13907738
33	0xbd60b407	-0.054859187
34	0xbdcaba75	-0.09898845
35	0xbe0980c7	-0.13428031
36	0xbdddbf57	-0.10827511
37	0xbdec2c2e	-0.11531864
38	0x3dc425c3	0.09577515
39	0xbcf47e7a	-0.029845465
40	0x3de32fd0	0.11093104
41	0x3d67ce6c	0.056593344
42	0xbbdfb234	-0.0068266634
43	0xbcee86d2	-0.029117022
44	0xbc872c07	-0.016500486
45	0x3db0123c	0.08597228
46	0x3d5fd317	0.05464467
47	0xbd361812	-0.04445655

net.4.weight f4 [48, 48]
0	0x3ad20a6a	0.0016024832
1	0x3e1f9dc7	0.15587531
2	0x3c9859e5	0.018597553
3	0xbdec6bef	-0.11544024
4	0xbda0e199	-0.07855529
5	0x3d6bb38f	0.057544287
6	0xbe0a31f9	-0.13495626
7	0xbd93bb59	-0.07213468
8	0x3b50f23a	0.003188266
9	0xbdef20f4	-0.11676207
10	0xbd98327f	-0.07431506
11	0xbde2ba29	-0.110706635
12	0x3dcf55c5	0.10123781
13	0xbe02ad55	-0.12761433
14	0x3e0d2a7e	0.1378574
15	0xbd962597	-0.073313884
16	0xbcf986ba	-0.03045975
17	0xbdd18392	-0.10230173
18	0xbe1340a5	-0.14380129
19	0x3c4f0283	0.012634876
20	0xbd486d73	-0.048932504
21	0x3dbeb9ce	0.09312783
22	0x3c16cd4d	0.009204221
23	0x3dfd0b03	0.12355616
24	0x3cd4fd59	0.025999712
25	0xbc4d8676	-0.012544265
26	0x3a1bc5ca	0.00059422536
27	0xbd93d883	-0.07219031
28	0xbdd893c3	-0.10575058
29	0x3df15fb0	0.11785829
30	0x3d0ed6c5	0.03487279
31	0xbd898561	-0.06714893
32	0x3c321963	0.0108703105
33	0x3d627660	0.055288672
34	0x3e0d9ff7	0.13830553
35	0xba4f41db	-0.00079062366
36	0x3c831cc3	0.016004926
37	0x3c61ae7c	0.0137745105
38	0x3d9b5140	0.075838566
39	0x3c31516d	0.010822636
40	0xbd1d4a3c	-0.038400874
41	0xbd38d0e1	-0.045121077
42	0x3d880569	0.06641657
43	0x3df1df8f	0.118102185
44	0xbd0454cf	-0.032307442
45	0xbd88cb69	-0.066794224
46	0xbda0a7b4	-0.07844487
47	0x3da066cf	0.07832109
48	0x3d562dfe	0.052289955
49	0xbd104638	-0.035223216
50	0x3e01b7aa	0.12667719
51	0x3dc23f52	0.09484734
52	0x3d83c078	0.06433195
53	0x3dfbedba	0.12301202
54	0x3e0bdb75	0.13657935
55	0x3d3c5b59	0.045985553
56	0xbdb86696	-0.09003942
57	0x3d451ec1	0.048125032
58	0x3de07227	0.10959273
59	0xbe1752e1	-0.1477771
60	0x3cde93ec	0.027170144
61	0xbd9873e3	-0.07443979
62	0x3dc6f34c	0.09714374
63	0xbc955bd5	-0.018232265
64	0xbc27e8c6	-0.010248369
65	0x3d0cfbdf	0.03441989
66	0x3d9f478a	0.07777317
67	0xbddb5422	-0.107094064
68	0xbdeae21b	-0.114689074
69	0x3c8510f1	0.01624343
70	0x3dbc3f79	0.09191794
71	0xbdaa3181	-0.08310223
72	0x3d8181e2	0.06323601
73	0xbd4db5db	-0.05022226
74	0x3cd2ba5b	0.025723627
75	0xbd7b5fc0	-0.06137061
76	0xbdbc6cc0	-0.0920043
77	0xbdfc930a	-0.12332733
78	0x3e1e30cf	0.15448307
79	0x3d31ffb2	0.04345674
80	0xbd0b3803	-0.033988964
81	0xbd0ab3d3	-0.0338629
82	0x3de69ae5	0.112600125
83	0xbc546f58	-0.012966
84	0xbbc6b26f	-0.0060637514
85	0xbdb08001	-0.08618165
86	0x3d2eff17	0.04272374
87	0x3d633e88	0.055479556
88	0x3e02d064	0.12774807
89	0x3ca21cd7	0.019789143
90	0xbdbc5db3	-0.09197559
91	0xbce5c01a	-0.028045703
92	0x3df3c3fe	0.11902617
93	0x3d5bec3c	0.053692088
94	0x3e070430	0.13185191
95	0x3c479985	0.012182598
96	0xbdb59f97	-0.0886833
97	0x3dc81ab2	0.09770717
98	0xbc4c7d5b	-0.012481059
99	0xbe0d83a3	-0.13819747
100	0xbd758169	-0.05993787
101	0xbca380ed	-0.019958938
102	0x3bff0bbb	0.007783381
103	0x3d9e85a9	0.077403374
104	0x3ac95098	0.0015359102
105	0xbd40e8a6	-0.04709687
106	0x3c8a03bc	0.016847484
107	0xbb860418	-0.0040898435
108	0xbdba1dc9	-0.09087712
109	0xbe351cc7	-0.17686759
110	0xbb0a2765	-0.002108061
111	0xbd574b9e	-0.05256235
112	0x3da6b968	0.08140832
113	0xbb1d1796	-0.0023970357
114	0xbdf54986	-0.11976914
115	0x3dc871b6	0.09787314
116	0xbda1fde4	-0.07909754
117	0xbd33ab2b	-0.04386441
118	0xbcc0fd8f	-0.023558406
119	0xbe052d28	-0.13005507
120	0x3e62d72f	0.22152399
121	0xbdc3c588	-0.095591605
122	0xbdc7e495	-0.097603954
123	0x3d9d8b8f	0.07692634
124	0x3f7956f2	0.97398293
125	0xbd616533	-0.05502815
126	0x3d560a8e	0.05225616
127	0xb9b1775a	-0.00033848995
128	0x3e11402c	0.14184636
129	0xbdbb6640	-0.09150362
130	0x3e0601a0	0.13086557
131	0x3c7af220	0.015316516
132	0x3d961594	0.073283345
133	0x3b28d945	0.0025764268
134	0xbe2cbe32	-0.16869429
135	0x3dbeefb1	0.09323061
136	0x3b5a746e	0.0033333558
137	0x3ddcff60	0.107908964
138	0xbdbf3a22	-0.0933726
139	0x3da3f265	0.080052175
140	0xbd769948	-0.060204774
141	0x3df44e39	0.11928982
142	0xba52f58e	-0.0008047455
143	0xbda87cfd	-0.082269646
144	0x3d8132f1	0.063085444
145	0x3dffcdaf	0.12490403
146	0x3e18841c	0.14894146
147	0x3d841115	0.06448571
148	0x3bc5644a	0.0060239183
149	0x3d83d04d	0.064362146
150	0xbd800c02	-0.0625229
151	0x3dc63931	0.09678877
152	0xbd8e08a8	-0.06935245
153	0x3d369508	0.04457572
154	0xbe13af9a	-0.14422455
155	0xbbdb8613	-0.0066993325
156	0x3be8e9a5	0.0071079307
157	0x3b8a0fe6	0.004213321
158	0x3e0aafeb	0.1354367
159	0x3e052a98	0.1300453
160	0x3cd863df	0.02641481
161	0x3e11af8f	0.14227127
162	0xbd4cb27a	-0.049974896
163	0xbe08aedb	-0.13347952
164	0xbc2f427c	-0.010697003
165	0xbdc2951d	-0.09501097
166	0xbd9a710d	-0.07541094
167	0x3dbec8ad	0.093156196
168	0x3dfbbdd3	0.122920655
169	0x3db11fc1	0.08648635
170	0xbd13314c	-0.035935685
171	0x3d7eb90f	0.062188204
172	0x3bf40742	0.0074471543
173	0xbe0502d5	-0.12989362
174	0xbe04429f	-0.12916039
175	0x3dcedc2d	0.10100589
176	0x3c88aa42	0.016682748
177	0x3cbb7bdb	0.022886207
178	0x3d760f75	0.060073335
179	0xbdc4a939	-0.09602589
180	0x3dd71461	0.10501934
181	0xbd6333ba	-0.055469252
182	0xbd6e1468	-0.05812493
183	0xbe9e7dbb	-0.309553
184	0x3db7ab59	0.08968229
185	0x3d46eb93	0.048564505
186	0xbd8c6dc6	-0.06856875
187	0xbc6b66d0	-0.014367774
188	0xbde617d6	-0.11235015
189	0x3d042502	0.032261856
190	0x3da041f7	0.07825082
191	0x3d1402b4	0.03613539
192	0x3c9a38e7	0.018825961
193	0xbde2661e	-0.110546336
194	0xbcb3344d	-0.021875525
195	0xbd6af152	-0.057359047
196	0x3d47896c	0.04871504
197	0x3dc6075a	0.09669371
198	0x3d6c3413	0.05766685
199	0x3deb3b72	0.11485948
200	0x3bf4735d	0.0074600414
201	0x3d941194	0.07229915
202	0xbd5b820d	-0.053590823
203	0xbd97000e	-0.07373057
204	0x3dc0e579	0.094187684
205	0xbe004683	-0.12526898
206	0xbdb17304	-0.086645156
207	0x3d1fa6ad	0.038977314
208	0x3df694de	0.12040113
209	0x3de5689a	0.11201592
210	0xbdccf46d	-0.10007558
211	0xbe142d79	-0.14470471
212	0x3d862a39	0.06551022
213	0xbdae4ec3	-0.08511116
214	0xbd8d649e	-0.06903957
215	0xbde5973e	-0.11210488
216	0xbe22d4a6	-0.15901431
217	0x3c9d58b5	0.019207338
218	0x3d5cd01e	0.053909414
219	0xbddf00af	-0.10888802
220	0x3d3cda23	0.04610647
221	0x3d94bb99	0.07262344
222	0x3cf23ad2	0.029569063
223	0x3ddf5e60	0.109066725
224	0x3d743825	0.059623856
225	0xbd1195ba	-0.03554318
226	0xbd9cf1d0	-0.076633096
227	0xb8c96cc9	-9.60469e-05
228	0x3d478b28	0.048716694
229	0x3c888e55	0.016669432
230	0x3bd516b2	0.0065029496
231	0xbdd7604a	-0.105164126
232	0xbdd543cd	-0.104133226
233	0xbb38293f	-0.0028100756
234	0xbcc2f3f8	-0.023797974
235	0x3e0475d3	0.12935571
236	0xbe053887	-0.13009845
237	0xbd3502a4	-0.04419197
238	0xbc796793	-0.015222448
239	0x3dc0c27a	0.094120935
240	0xbd39c415	-0.045353014
241	0x3d752fcb	0.059860032
242	0xbd8afd84	-0.067866355
243	0xbe0fb7a4	-0.14034897
244	0xbddb7908	-0.10716444
245	0x3d9456ca	0.07243116
246	0x3d294277	0.04132315
247	0x3e0eeff3	0.13958721
248	0x3dd02559	0.101633735
249	0x3d0ad45b	0.033893924
250	0xbc252839	-0.010080391
251	0x3c88e822	0.016712252
252	0x3d0d0ef3	0.034438085
253	0x3dd9b3f1	0.10630024
254	0x3de04e92	0.10952486
255	0xbe025835	-0.12728961

net.4.bias f4 [48]
0	0x3d5890c9	0.052872453
1	0x3e0efd6e	0.13963863
2	0xbd3287cd	-0.04358654
3	0x3cf4cc7f	0.029882668
4	0x3d995f56	0.07488887
5	0x3d664997	0.056222524
6	0x3d8dc212	0.069217816
7	0x3cab1e0e	0.020888355
8	0x3e14adb2	0.14519385
9	0xbd0168bd	-0.031594027
10	0xbd363b5d	-0.044490207
11	0x3d259cf2	0.040432878
12	0x3e084364	0.13306957
13	0x3d36fa00	0.044672012
14	0xbd96e27e	-0.07367419
15	0xbde2434c	-0.11047992
16	0xbd6834b0	-0.05669087
17	0x3d38eda3	0.045148503
18	0xbce07e42	-0.027403954
19	0xbc30e81b	-0.010797526
20	0x3d7f52c5	0.062334795
21	0x3df62911	0.120195515
22	0xbdb5f316	-0.088842556
23	0xbddc2895	-0.10749928
24	0x3ddbc1e4	0.10730341
25	0x3dc73ffe	0.097290024
26	0x3dffefb3	0.12496891
27	0x3e133deb	0.14379089
28	0x3b8316dc	0.004000528
29	0x3c0bfe6b	0.008544545
30	0xbb59ab1d	-0.0033213564
31	0xbddb397f	-0.10704326
32	0x3d63f685	0.05565502
33	0xbbd86c34	-0.0066046957
34	0x3c7f4b49	0.015581914
35	0x3de51656	0.11185901
36	0x3dfbf9cf	0.123035066
37	0x3d1086d5	0.035284836
38	0xbda70ffa	-0.08157344
39	0x3dade6f3	0.08491316
40	0xbccc852a	-0.024965841
41	0xbe124cbc	-0.14287084
42	0x3da28d8a	0.07937153
43	0xbd4084b3	-0.04700155
44	0x3d3f09a5	0.046640057
45	0xbd984ac0	-0.074361324
46	0xbdc2a8dc	-0.095048636
47	0xbe0d0529	-0.137715

net.6.weight f4 [1, 48]
0	0x3ddd43ea	0.10803969
1	0xbdda1c39	-0.10649914
2	0x3e318915	0.17337449
3	0xbdff351e	-0.12461303
4	0xbdd02344	-0.101629764
5	0x3d03e4de	0.032200687
6	0xbc9ca377	-0.019120915
7	0xbdb5e4cf	-0.088815324
8	0xbdd8029a	-0.10547371
9	0x3c775053	0.015094834
10	0xbd2749ec	-0.04084198
11	0xbdb3c614	-0.08778015
12	0x3dd2d1d6	0.10293929
13	0x3cfafb64	0.03063745
14	0x3d1c7305	0.03819563
15	0xbcbcb473	-0.023035264
16	0xbdbb1f0f	-0.09136783
17	0x3ddd48f3	0.108049296
18	0x3cee1dbb	0.029066911
19	0xbdb42690	-0.08796418
20	0x3dd6c786	0.10487275
21	0x3d6d6044	0.057953134
22	0x3dca4d86	0.09878068
23	0x3e116859	0.14199962
24	0xbdfd490e	-0.1236745
25	0xbdd8f60d	-0.105938055
26	0x3d6c5699	0.057699773
27	0xbdae5ba4	-0.08513573
28	0xbdd70092	-0.10498156
29	0x3e837fa9	0.25683334
30	0xbcb567cf	-0.022144226
31	0xbdd828d0	-0.10554659
32	0x3d2b941d	0.0418893
33	0x3de99239	0.11404843
34	0xbdf5ba72	-0.11998452
35	0x3d0f2c82	0.034954555
36	0x3d437700	0.04772091
37	0x3dae7c99	0.08519859
38	0xbcb48924	-0.02203805
39	0xbd20cb47	-0.03925636
40	0xbd5fbcd8	-0.054623455
41	0xbd7adb89	-0.06124452
42	0xbdc1faa4	-0.09471634
43	0x3c1258ac	0.008932274
44	0xbd89ad72	-0.06722535
45	0x3d9e7a2e	0.07738148
46	0xbd9fc299	-0.078007884
47	0x3db520be	0.08844136
