Results/Archive_NNfile/pretrain_phy_6.pt (torch, 25115 bytes, 7 tensors)

net.0.weight f4 [48, 13]
000000 a7 dd e2 3c 11 5f 3d be 7c 36 2c 3e 1c c4 ce bd
       0.027693583 -0.18493296 0.16817659 -0.10095999
000010 76 de 1e be 9e 54 1a 3e a6 3c 49 3e 20 ca 62 be
       -0.1551455 0.15071341 0.19652042 -0.22147417
000020 90 c8 37 be 46 69 6e 3e d1 54 6f be fa 47 de bd
       -0.17947602 0.23282346 -0.23372199 -0.10853572
000030 ec d4 74 3e a6 92 24 be c0 7e c3 3d 0f 39 4a bd
       0.23909348 -0.16071567 0.0954566 -0.04937082
000040 0e cc 18 be e6 d8 dd bd 6b 65 eb 3d 49 25 a3 be
       -0.1492159 -0.10832386 0.11493953 -0.31864384
000050 74 2d ec 3c 5b 03 5d bd bf f2 66 3e a8 46 11 be
       0.028830267 -0.05395828 0.22553538 -0.1418711
000060 be 60 45 bd d0 97 0a be eb e2 d0 3d fb bf 0c 3e
       -0.048187964 -0.13534474 0.10199531 0.1374511
000070 42 87 a9 bc 9e bf 1b 3e 97 6f 81 bd 8f b7 72 be
       -0.020694379 0.15209815 -0.06320112 -0.23702835
000080 2c 35 54 3e 9b 4d a9 bd 94 8e c3 bd 15 4f c6 bd
       0.20723408 -0.08266755 -0.09548679 -0.096830525
000090 b9 c2 13 be b1 bc 45 bc bb 2b 19 be 58 c0 1b bc
       -0.1442975 -0.012068913 -0.14958088 -0.009506308
0000a0 0e 4a 4c bd 89 45 c6 3d 96 9c a7 be 49 6f fd 3b
       -0.04987531 0.096812315 -0.32736653 0.0077342135
0000b0 00 18 2d 3e 91 0c d5 be df 37 63 3d 2b 5a 10 be
       0.16903687 -0.4161115 0.055473205 -0.14096896
0000c0 6c 3e 96 be 96 3b 9d be 20 6b d1 be 82 5b 10 3c
       -0.293445 -0.30709523 -0.40902042 0.00881088
0000d0 e0 a9 ae 3d ad 41 3f 3e 18 4a 80 3e 30 b4 60 3e
       0.08528495 0.18677397 0.2505653 0.21943736
0000e0 c9 0f 67 be d5 5e 9d 3e 77 13 b7 3d 88 5f 7b 3e
       -0.22564615 0.30736414 0.089392595 0.24548161
0000f0 87 3c 66 3e e1 26 b2 bc 03 76 26 3d c4 75 51 3e
       0.22484027 -0.021747055 0.04063989 0.2045508
000100 76 5a 33 3e 02 50 a4 3e 81 e1 28 bc 6e ff c1 3d
       0.17514977 0.3209229 -0.010307671 0.094725475
000110 c0 f3 58 bd cf 1a f3 bc a0 e5 2a be db 75 3b bc
       -0.052966833 -0.02967587 -0.16689157 -0.011441673
000120 92 f2 c0 3d 40 70 2d 3e 34 b8 26 3e 12 b7 33 be
       0.094212666 0.16937351 0.16281205 -0.17550305
000130 89 99 74 3c b2 70 49 be e5 5d a4 bb d2 19 3d 3e
       0.014929184 -0.19671896 -0.005016076 0.18466881
000140 9d ec 67 bc c9 b1 89 be 7b 54 eb 3d 70 f8 f8 3c
       -0.014155534 -0.26893452 0.11490723 0.030391902
000150 c3 11 00 3d cd 67 f8 3c 6d a4 6e be 3f f8 71 be
       0.03126694 0.030322934 -0.23304911 -0.23629855
000160 0c 38 82 be b0 15 6f 3e 37 7d 7d be 6f 31 3b be
       -0.25433385 0.23348117 -0.24754797 -0.18280576
000170 ab c9 8b bd e0 4c 70 3d f5 8f 56 be 7b 96 36 be
       -0.068255745 0.058667064 -0.20953353 -0.17830841
000180 e7 95 4a bd 01 b6 a1 3d 17 b3 83 be e7 16 82 3e
       -0.049459364 0.078960426 -0.25722572 0.25408098
000190 93 96 88 3e 10 c6 1e be 42 0d 80 3d 0d 82 85 be
       0.2667738 -0.15505242 0.06252529 -0.26075783
0001a0 19 dc fa bd a8 93 48 be 94 b5 29 3e 3a e1 08 3d
       -0.122490115 -0.19587576 0.16573173 0.033417918
0001b0 3a 17 0c be df ab 6a be 13 dd d8 3d c1 10 8c 3d
       -0.13680735 -0.22917126 0.105890416 0.06839133
0001c0 78 d7 69 be 07 90 9a bd 1c 4b 9d bc e7 05 43 3e
       -0.22836101 -0.07547002 -0.019200854 0.1904522
0001d0 a9 5e 7c 3e f5 80 54 be df 11 eb bd 05 2c 76 be
       0.24645485 -0.20752318 -0.11478018 -0.2404023
0001e0 11 0f 5b bd 38 09 96 3e ce 43 34 bc 4c 27 0c 3d
       -0.053481165 0.29303908 -0.011002494 0.034217164
0001f0 fd 9c d1 be 60 49 92 3d 7f c1 33 3e 43 10 8d 3e
       -0.40940085 0.071429014 0.17554282 0.2755147
000200 dd e1 49 be 97 be 34 3e 80 f8 2f 3d df 71 f4 bc
       -0.19715066 0.1765083 0.042961597 -0.029839454
000210 6c dd bf be 7f e2 56 bd 98 1c 35 3d 46 d8 ad 3e
       -0.3747362 -0.052462097 0.044216722 0.33954066
000220 27 fe 4a 3c 9e a0 5f be f5 bc 10 3d 65 a7 31 3c
       0.012389696 -0.21838614 0.035336453 0.010843133
000230 be 17 8f 3d f8 62 78 bd 4f bb 1a 3e 02 23 5c be
       0.0698695 -0.06064126 0.15110515 -0.2149773
000240 91 2e 52 be 54 e8 71 bd 00 50 61 3e 73 f9 6e bc
       -0.20525576 -0.059059456 0.22003174 -0.0145858405
000250 9b 61 92 be 21 fb ec 3d 73 e5 36 3e 83 d2 5e bd
       -0.28590092 0.115713365 0.17860965 -0.05439998
000260 18 8c 80 3e 28 74 c4 bd d2 61 15 3e 01 c5 a8 bd
       0.25106883 -0.095924675 0.14588097 -0.082407005
000270 d1 4c 76 3c 1b 34 12 3d a7 3b 41 3c eb 68 7e be
       0.015032963 0.035694223 0.011794007 -0.2484471
000280 95 17 ad bd 19 63 ff bc a8 36 8f be e1 8d 00 be
       -0.084517635 -0.031175183 -0.27971387 -0.12554123
000290 29 fa d1 3c da c5 91 be 44 31 a1 bd f3 74 98 be
       0.025631981 -0.2847126 -0.07870725 -0.29776725
0002a0 ef 7c bb bd 4d 50 8d 3e 01 12 da bc bf 99 f5 3d
       -0.091546886 0.27600327 -0.026619913 0.11992215
0002b0 3d 43 12 be 1d fa 1e 3e e8 da 12 3e 45 a6 89 3d
       -0.14283462 0.15525098 0.14341319 0.067211665
0002c0 13 8e 08 3e a7 89 6d bd e9 ed 89 3e 81 5d 18 3e
       0.13335447 -0.057992604 0.26939324 0.14879419
0002d0 59 9f 2d bd 51 24 92 ba 8e 6d 12 3e 75 fd 7f 3e
       -0.042388294 -0.0011149739 0.14299604 0.2499903
0002e0 6f 28 7e be 16 40 08 3e 58 4e 5a be 4b 7a 9f 3d
       -0.24820112 0.13305697 -0.21318948 0.077869974
0002f0 66 2f 01 be 1f 74 0e 3e 7d f5 31 3e f7 d7 69 3e
       -0.12615737 0.13911484 0.17378803 0.2283629
000300 07 ac 14 3d e4 2a 5f 3e 9a 15 27 3e ca 21 60 be
       0.03629687 0.21793705 0.16316834 -0.2188789
000310 ac 92 77 3e 29 56 3e be a7 b8 16 be f6 a8 39 3e
       0.24177045 -0.18587555 -0.14718877 0.1813086
000320 32 b8 e6 bd a5 e9 27 3d 44 4d 0b 3e 90 1e 28 3e
       -0.11265601 0.040994305 0.13603693 0.16417909
000330 da e7 fc 3d 18 c0 08 3e 94 e6 68 3d 00 cc 8c 3d
       0.1234891 0.13354528 0.05686052 0.068748474
000340 be 40 84 be c8 1f 2e bc 6b 2b ec bd 70 b5 8a 3e
       -0.25830644 -0.010627694 -0.11531719 0.2709155
000350 14 03 ae 3d c5 13 cb bc 8e 6e 8b be db 20 22 be
       0.08496681 -0.0247897 -0.27232784 -0.15832846
000360 0d b0 d7 3c 6b a7 50 bc a5 f8 9c bb 7c b4 32 bd
       0.026329065 -0.012735228 -0.004790383 -0.043629155
000370 15 da d7 3b d4 30 09 3e e4 dc f0 3d e9 cd fb 3d
       0.0065872767 0.13397533 0.117608815 0.122951336
000380 f2 27 7a 3e b2 3d 15 3e b1 f4 60 3e c1 76 b2 bd
       0.244293 0.14574316 0.21968342 -0.08714057
000390 0e e9 bf 3d 33 27 e4 bd d2 47 6d 3e 42 cb 45 3e
       0.093706235 -0.11140289 0.23171929 0.19315818
0003a0 85 3f 0c bb e4 d2 02 3e 07 f9 32 3e 1b 9b 03 be
       -0.0021400165 0.12775761 0.17477809 -0.12852137
0003b0 06 4c 2a 3d 16 ad 06 3e b9 72 70 be 34 3a c7 be
       0.041576408 0.13151965 -0.23481263 -0.38911593
0003c0 dc c3 6d be 9a 21 9e 3d 6f ed 8a 3d a7 c6 24 bd
       -0.23219246 0.07721253 0.06783568 -0.040228512
0003d0 24 ef 84 3e f1 3d 2f be 73 d3 48 bd e7 d7 b4 bd
       0.259637 -0.17113473 -0.04902978 -0.088302426
0003e0 5d 27 cc 3d d3 4e 45 be ef f8 61 3e d3 a9 0c be
       0.099684455 -0.1926835 0.22067617 -0.13736658
0003f0 70 85 82 bc a8 06 81 3d 3b 7a ef bb 8b c7 80 3e
       -0.015932769 0.06300098 -0.007308272 0.2515224

net.0.bias f4 [48]
000000 03 19 74 be 31 da 8e 3e 85 f7 0f be fd 46 1b 3e
       -0.23837666 0.27900842 -0.14059265 0.15163799
000010 9f 97 75 3e bc 0e 55 bd 68 44 b1 bd 0b 0a 32 be
       0.2398362 -0.052016005 -0.086556256 -0.17386644
000020 45 89 92 3d 20 7d 2c 3d 20 7e 33 3d bb 19 49 3e
       0.07155088 0.042111516 0.043821454 0.19638722
000030 1b 83 9f 3d 18 fc 2c 3e 7f 46 cf 3d 75 05 18 be
       0.07788678 0.16893041 0.10120868 -0.14845832
000040 59 a4 4e be 4f 19 ad be 6e 03 6a 3d 11 09 98 3d
       -0.20179881 -0.3380837 0.057132177 0.07423604
000050 2a a7 1b 3d 63 33 85 be d4 a3 49 be b2 b2 3b 3e
       0.038001217 -0.26015767 -0.19691402 0.18329886
000060 c8 03 8c be c6 ba 37 3e 90 28 bf 3d b8 17 40 3e
       -0.27346635 0.17942342 0.093339086 0.18759048
000070 43 fa f2 3d 4e a8 12 be 1b ed 04 3d b2 15 64 bd
       0.1186414 -0.14322016 0.032452684 -0.055684753
000080 76 9f 54 3b e1 52 7c bd a9 ce 26 3e e5 26 fc 3d
       0.003244368 -0.061602477 0.16289772 0.12312106
000090 2f a5 37 3e 39 50 2c 3d 70 92 85 be fd 8d 58 be
       0.17934106 0.042068694 -0.26088285 -0.21147914
0000a0 45 d4 16 3e 31 e1 db bc ca 7a 68 bd 42 84 47 3c
       0.14729412 -0.026840778 -0.056757726 0.012177529
0000b0 08 ab 3a 3d b9 70 84 3e 76 72 6f 3e 30 4e 14 3e
       0.045573264 0.2586725 0.23383507 0.14482951

net.2.weight f4 [48, 48]
000000 ba 76 e7 ba 6f f0 af 3d 60 91 98 bd 21 86 ef 3d
       -0.0017659285 0.08590781 -0.07449603 0.11695505
000010 8d 3a 02 3e 1f 0e dc be ac cf 89 bc 5d ca 1d 3d
       0.12717648 -0.42979524 -0.016822658 0.038523067
000020 99 5e 5d bc a0 05 db 3b ea 14 95 3d 58 9e f3 bd
       -0.013511323 0.00668402 0.0727938 -0.11895436
000030 6f d8 af 3e dd 5a 3b bd 48 75 fb bd 2b d7 0d 3d
       0.34344813 -0.04574095 -0.12278229 0.03462903
000040 03 ef b3 3d 0a 96 a1 3d 19 c1 0d be 32 c0 36 3d
       0.08785822 0.07889946 -0.13843192 0.044616885
000050 21 a6 54 bd 52 07 cf 3d bf 48 7f 3d 7e 5c ca 3b
       -0.051916245 0.10108818 0.062325235 0.0061755767
000060 f5 a8 3e bd b0 35 13 bf 89 c6 85 bc 0d a1 19 3e
       -0.04654785 -0.57503796 -0.01633002 0.15002842
000070 65 8c e6 be 15 bf 62 bb 0b 24 04 be 26 6e e8 3d
       -0.45028988 -0.0034598757 -0.12904374 0.11349134
000080 9b 01 84 bb 58 63 c1 bd b3 83 3b bc 8b b0 0a be
       -0.0040285117 -0.094427764 -0.011444974 -0.13543908
000090 e3 9c b4 bd 86 29 f4 3d 48 a7 b5 bd e8 95 1f bd
       -0.08818986 0.119219825 -0.08869797 -0.03896132
0000a0 99 fc 4b bd 1c 1f 67 bc ae 44 f5 3d 54 00 4c 3d
       -0.049801443 -0.014106538 0.1197599 0.049805
0000b0 0f f6 3e 3c da 7b 0f 3e 52 10 01 3e c4 ac 12 3d
       0.011655345 0.1401209 0.12603882 0.035809293
0000c0 67 89 c7 bd 01 07 2d 3d 0a 33 af bd de c1 0e bd
       -0.09743004 0.042243008 -0.08554657 -0.034852855
0000d0 ee 20 93 bd e5 e0 8d 3d 79 f9 0a 3e f2 b7 6a bd
       -0.07184015 0.06927661 0.13571729 -0.05730433
0000e0 64 60 7f 3d 3b 3c 5b bd 65 64 15 3e 62 11 fb 3d
       0.062347785 -0.053524237 0.14589079 0.12259175
0000f0 e8 d9 d1 bc ff f2 1d 3e a1 30 97 3d b3 da ba bd
       -0.025616601 0.15424727 0.07382322 -0.09123745
000100 82 27 a1 be 33 34 17 3e 0d 7d 95 bd cd 01 ad bd
       -0.31475455 0.14766006 -0.07299242 -0.08447609
000110 c9 69 e6 bd 91 4f 8c bd 37 68 84 bd b9 0e cf 3a
       -0.11250646 -0.068511136 -0.0646519 0.0015797234
000120 35 20 02 3e b6 31 12 bd 32 ff 3c 3d 3a 51 05 be
       0.12707599 -0.03569194 0.04614181 -0.13019267
000130 ec 4a c1 bd 34 e5 dd bc 83 85 06 be bd 58 75 bd
       -0.09438118 -0.027086832 -0.13136868 -0.05989908
000140 cd d7 a2 bd 93 23 d6 3d d7 4a 17 3e 46 ba 01 be
       -0.07951317 0.10456004 0.14774643 -0.12668714
000150 a0 de 7e ba aa d4 e4 bd 0b 69 12 3e fb 4e 46 3c
       -0.0009722505 -0.11173375 0.14297883 0.012103791
000160 54 12 96 3c 9f d3 e8 3d 81 c1 9b 3c eb 6d ad bd
       0.018319286 0.113684885 0.019013168 -0.08468231
000170 dc 60 c4 bd b4 b1 60 3d 0d dd 03 3e 8d 08 88 3d
       -0.09588787 0.05485697 0.12877293 0.06642256
000180 dd 9e a8 bd c1 09 24 3e 1f 98 c8 3d e0 c6 40 3d
       -0.08233426 0.16019346 0.0979464 0.047064662
000190 c6 92 32 bd 52 4c 92 bc 77 74 80 3c 95 e6 9b bd
       -0.043597005 -0.017858658 0.015680535 -0.076123394
0001a0 96 cb f3 3d 6f aa ae bd af 24 1b 3d 0d 4c 36 3d
       0.11904065 -0.085286014 0.03787678 0.04450612
0001b0 3a 24 c2 3d 90 6a 80 bc c8 8b 33 bd 99 79 88 be
       0.09479566 -0.015675813 -0.043834478 -0.26655272
0001c0 5d 40 61 bd c6 de 2a be 78 4d 77 bd 57 fd ba 3d
       -0.054993022 -0.16686544 -0.060376614 0.09130352
0001d0 16 7c 8a 3d af fe 64 bd 14 4f 94 bd 17 22 e3 3d
       0.06761949 -0.055906948 -0.072416455 0.110904865
0001e0 79 40 ea bc e8 7e 80 3d 44 4e 05 3d 49 e4 d7 3c
       -0.028595196 0.062742054 0.032545343 0.026353972
0001f0 5a c2 0f 3e a7 b8 ae 3d 84 c5 88 bd c5 7b 12 bc
       0.14038983 0.085313134 -0.06678298 -0.008940642
000200 e5 0e 9c bd cb 30 c2 3d 85 0f b0 bd b4 0d fe bc
       -0.076200284 0.09481963 -0.0859671 -0.031012394
000210 87 5d df bc 71 7d 8d bd 36 fa 01 bc c5 70 26 be
       -0.027266277 -0.06908692 -0.00793319 -0.16253956
000220 bd a9 5a 3d d6 32 d9 bc 65 97 9d bc 9e 07 b4 bd
       0.05338453 -0.026513498 -0.01923723 -0.08790515
000230 5c 65 67 bd 30 76 d1 bc d0 7a 71 3d fc 8d 29 3e
       -0.05649315 -0.025569052 0.058955014 0.16558069
000240 82 3c 75 3d d7 f8 33 3c 16 74 0e 3e 6c 51 15 3c
       0.059872158 0.010984621 0.13911471 0.009113651
000250 11 fa f4 bd a9 c6 17 3d c0 d6 e6 3d 17 1f 85 bd
       -0.11961759 0.03705469 0.11271429 -0.065000705
000260 d3 8c cf 3c 5a 4c 13 be 1f 2a 8b bb ee 15 f1 3d
       0.025335705 -0.14384595 -0.0042469646 0.11771761
000270 93 36 00 3e b2 f3 fb bd fe db 10 be fc ef a0 bd
       0.12520818 -0.123023406 -0.1414642 -0.078582734
000280 45 c2 e2 3d f2 66 f8 3c 00 11 85 bd c1 96 b5 3d
       0.1107221 0.030322526 -0.06497383 0.08866645
000290 b1 a6 cb bd ea 4b b5 3d 4f de cd bd d8 27 c7 bd
       -0.09943903 0.0885237 -0.100521676 -0.097243965
0002a0 16 31 d8 3d 95 85 ab bd cf 6b 13 3e 3b 77 04 be
       0.105562374 -0.08375088 0.14396594 -0.12936108
0002b0 91 b5 98 3d 3b 37 0b 3e 57 fb ff bd b4 7a a2 bd
       0.07456506 0.13595288 -0.12499111 -0.0793356
0002c0 2d aa 7e bd 9f 72 61 bd f3 b3 dd bc 95 c9 87 bd
       -0.06217401 -0.05504095 -0.027063346 -0.066302456
0002d0 c7 37 12 be fa 75 11 be d5 a1 06 be 0a fe 6b bd
       -0.1427909 -0.1420516 -0.13147672 -0.057615317
0002e0 b4 76 a8 bd d6 29 83 3d e0 e6 0c 3e d1 53 27 bd
       -0.08225766 0.06404464 0.13759947 -0.040851418
0002f0 f9 b9 73 3d bb 25 13 3e c2 88 e2 bd 8c cc 1d bc
       0.05950353 0.14369862 -0.11061241 -0.009631287
000300 75 c3 a2 3d 32 93 1a bd 5b b1 c1 bd 3e ed d2 bd
       0.07947437 -0.037738033 -0.09457656 -0.102991566
000310 60 b1 64 bc af 2f 1b be cb a2 ec bd 61 5c e9 bc
       -0.013958305 -0.15154909 -0.11554488 -0.028486433
000320 6b c1 f0 3d 34 da f1 3d d3 2e 48 3d 3b fa 83 bd
       0.117556415 0.11809197 0.04887278 -0.06444212
000330 1a bd af bd 1c 5b 08 be a1 7b f6 bc 42 1a 77 bd
       -0.0858099 -0.13316005 -0.030088248 -0.060327776
000340 5c 92 02 3c 76 09 d9 3c fe ad e2 3d 97 42 5f bd
       0.007969465 0.02649377 0.110683426 -0.054506864
000350 54 7f 9f 3c f7 dd d8 3c 80 6d f5 3d a6 63 b2 bd
       0.019469894 0.026473029 0.11983776 -0.08710413
000360 6c 99 ad 3d cd 82 be bd 8e 0b d7 3b b0 e8 ad bd
       0.084765285 -0.09302292 0.0065626567 -0.08491647
000370 ee 6e 13 be cd d3 e8 3c e6 31 8f 3d da 32 c1 3d
       -0.14397785 0.028421307 0.06991939 0.09433527
000380 7a f3 05 be 51 c3 b5 3c be 37 f0 3d 47 fc 7f 3d
       -0.1308116 0.02218786 0.11729382 0.06249645
000390 c8 c4 9f 3d 9a 20 eb bd bb 1d 48 3c 79 5a c4 3d
       0.07801205 -0.11480828 0.01221412 0.09587569
0003a0 1d 91 a0 bd 6a 73 3e bd 8d 78 be bd 6c fc 18 bd
       -0.07840178 -0.046496786 -0.09300337 -0.037350103
0003b0 0a e7 53 bc c5 09 66 3b 40 61 96 3d 19 e6 5c 3d
       -0.012933502 0.0035101038 0.07342768 0.053930376
0003c0 21 a9 ce bd 59 fe ad 3d 49 84 cc bb 5a 63 ef 3d
       -0.100908525 0.084957786 -0.0062413556 0.11688872
0003d0 04 5b dc bc b6 53 36 bc f4 e3 04 be d2 93 05 be
       -0.026898868 -0.011128357 -0.12977582 -0.1304467
0003e0 15 57 5b 3d 30 41 71 3c f5 1e 40 bd bd d1 be 3d
       0.053549845 0.014725015 -0.046904523 0.09317348
0003f0 00 0f c0 3d cd 2e 05 be 25 51 e5 bd f1 79 81 bd
       0.09377861 -0.13006134 -0.11197118 -0.063220866

net.2.bias f4 [48]
000000 52 57 c3 bd 7e 9b c7 bd fa 17 f5 3c 45 3c 70 bd
       -0.095381394 -0.09746455 0.02991866 -0.058651228
000010 8c 87 06 be cc 21 0f 3e 9a 50 a6 3d bf 1d d2 3d
       -0.13137645 0.13977736 0.08120842 0.1025958
000020 32 d2 c7 bd d5 b7 b1 bd d1 d0 10 3d 39 7e 5d 3c
       -0.097568884 -0.08677641 0.035355393 0.013518863
000030 a2 26 6d 3c 9c 12 9b 3c 0c 64 b8 3d 81 1c 29 3d
       0.014474543 0.018929772 0.090034574 0.04128695
000040 91 ac 61 3c 70 21 e6 3d 0a 58 ca 3d e2 74 2b bc
       0.013774053 0.112368464 0.09880073 -0.010464879
000050 86 d5 5f 3c 52 ba 1b be 9a 68 b7 3d dd b7 8d 3d
       0.013661748 -0.15207794 0.08955498 0.06919835
000060 52 51 e6 bd 37 12 05 bd 53 ee 9e bd 32 06 3d 3d
       -0.11245979 -0.032488074 -0.077603005 0.046148486
000070 af 64 e6 bd 10 ba 8f bd ae c0 ba bc b0 66 00 3e
       -0.112496726 -0.070179105 -0.022796955 0.12539172
000080 2c 1a 0e be 07 b4 60 bd 75 ba ca bd 71 10 0a be
       -0.13877171 -0.054859187 -0.09898845 -0.13482834
000090 57 bf dd bd 5a 3f eb bd 10 85 c3 3d b3 b4 f0 bc
       -0.10827511 -0.11486693 0.09546864 -0.02938304
0000a0 db cf e2 3d ce be 6f 3d 34 b2 df bb 66 38 ea bc
       0.110748015 0.058531575 -0.0068266634 -0.028591346
0000b0 76 ec 8e bc 74 ec b0 3d a3 84 5e 3d 12 18 36 bd
       -0.017446738 0.0863885 0.05432571 -0.04445655

net.4.weight f4 [48, 48]
000000 21 8c 86 3a be 0b 20 3e cb 91 8a 3c ef 6b ec bd
       0.001026515 0.1562948 0.016915223 -0.11544024
000010 99 e1 a0 bd 4f c9 6c 3d 17 bb 0c be 47 0f 93 bd
       -0.07855529 0.05780917 -0.13743244 -0.07180648
000020 3a f2 50 3b 0f d3 ee bd 30 ff 97 bd 29 ba e2 bd
       0.003188266 -0.1166135 -0.0742172 -0.110706635
000030 0e 5b cb 3d 02 44 02 be ae bf 0d 3e a5 e1 94 bd
       0.09929477 -0.12721255 0.13842651 -0.07269601
000040 b1 c6 f8 bc 1c dc d4 bd 66 48 13 be d0 27 4c 3c
       -0.030368181 -0.10393545 -0.14383087 0.012460664
000050 53 8e 41 bd ce b9 be 3d 4d cd 16 3c d2 0c fd 3d
       -0.04725487 0.09312783 0.009204221 0.12355961
000060 aa ca de 3c 39 30 56 bc ca c5 1b 3a 83 d8 93 bd
       0.027196247 -0.013073021 0.00059422536 -0.07219031
000070 0f 97 da bd 9c 99 f1 3d c5 d6 0e 3d 6f 7e 8d bd
       -0.106733434 0.11796877 0.03487279 -0.06908881
000080 84 f5 35 3c 60 76 62 3d f7 9f 0d 3e 2f 34 3d ba
       0.011105899 0.055288672 0.13830553 -0.0007217554
000090 c3 1c 83 3c e0 3d 61 3c 11 10 9c 3d f2 a8 30 3c
       0.016004926 0.013747662 0.07620252 0.010782467
0000a0 d5 24 1b bd 22 c5 37 bd 69 05 88 3d 3f 65 f1 3d
       -0.037876923 -0.044865735 0.06641657 0.11786889
0000b0 c8 b5 00 bd d4 3d 87 bd 49 ea a3 bd cf 66 a0 3d
       -0.03142336 -0.0660359 -0.08003671 0.07832109
0000c0 c0 a6 58 3d b7 d9 11 bd 0d 74 03 3e 52 3f c2 3d
       0.0528934 -0.03560802 0.12837239 0.09484734
0000d0 78 c0 83 3d 43 6e fb 3d ce 67 0e 3e e4 22 3b 3d
       0.06433195 0.1227689 0.13906786 0.04568757
0000e0 96 66 b8 bd c0 a5 44 3d 57 4d e0 3d e1 52 17 be
       -0.09003942 0.048009634 0.109522514 -0.1477771
0000f0 6f a5 ee 3c 4b 3d 99 bd 1a db c5 3d ee 3d 9a bc
       0.02913162 -0.07482394 0.09660931 -0.018828359
000100 e9 e2 28 bc 2d b8 13 3d 8f 68 9f 3d 5b ea da bd
       -0.010308006 0.036064316 0.07783615 -0.10689231
000110 dd 45 ee bd f1 10 85 3c 79 3f bc 3d 99 21 aa bd
       -0.11634419 0.01624343 0.09191794 -0.083071895
000120 5e 3e 7e 3d d0 6c 4b bd 5b ba d2 3c c0 5f 7b bd
       0.062071197 -0.04966432 0.025723627 -0.06137061
000130 46 5c ba bd 61 be fc bd cf 30 1e 3e dc ff 39 3d
       -0.09099631 -0.123409994 0.15448307 0.045410022
000140 1a 15 0c bd d3 b3 0a bd e5 9a e6 3d d6 18 55 bc
       -0.03419981 -0.0338629 0.112600125 -0.01300641
000150 6f b2 c6 bb 47 63 b0 bd 47 a0 2d 3d 92 87 63 3d
       -0.0060637514 -0.08612686 0.04238918 0.05554921
000160 c7 4c 02 3e 33 40 a0 3c b3 5d bc bd d6 99 e3 bc
       0.127246 0.019561863 -0.09197559 -0.027783316
000170 bd 03 f2 3d b5 f2 58 3d b9 a8 08 3e 85 99 47 3c
       0.11817119 0.05296584 0.13345613 0.012182598
000180 87 cb b7 bd 2b 5c c6 3d d6 e8 55 bc a3 83 0d be
       -0.08974367 0.096855484 -0.013056001 -0.13819747
000190 69 81 75 bd 9a cc a6 bc bb 0b ff 3b ac 28 9f 3d
       -0.05993787 -0.020361234 0.007783381 0.077714294
0001a0 98 50 c9 3a e9 ce 43 bd a7 65 85 3c 18 04 86 bb
       0.0015359102 -0.047804747 0.016283823 -0.0040898435
0001b0 4c 19 bc bd d4 4f 36 be 09 aa 37 bb a3 8d 4a bd
       -0.091845125 -0.1780389 -0.0028024933 -0.04945148
0001c0 8f 43 a5 3d 92 88 6f bb 55 6e f6 bd 4a 73 c7 3d
       0.080695264 -0.0036549908 -0.12032763 0.097387865
0001d0 bd ab a3 bd 2b ab 33 bd 8f fd c0 bc 35 bc 05 be
       -0.07991741 -0.04386441 -0.023558406 -0.13060077
0001e0 ad 2f 62 3e db 11 c5 bd 95 e4 c7 bd 8f 8b 9d 3d
       0.220885 -0.09622546 -0.097603954 0.07692634
0001f0 79 1c 79 3f 90 23 64 bd 8e 0a 56 3d 5a 77 b1 b9
       0.9730907 -0.055697978 0.05225616 -0.00033848995
000200 03 71 10 3e 40 66 bb bd a0 01 06 3e 17 3d 6f 3c
       0.1410561 -0.09150362 0.13086557 0.014601967
000210 94 15 96 3d a1 c6 f5 3a 1c 31 2d be 08 be bb 3d
       0.073283345 0.0018751213 -0.16913265 0.09167105
000220 9b af 2f 3b 10 67 dc 3d 22 3a bf bd 00 74 a2 3d
       0.002680755 0.10761845 -0.0933726 0.079322815
000230 48 99 76 bd 74 a7 f3 3d 3d 4c b0 ba fd 7c a8 bd
       -0.060204774 0.118971735 -0.0013450455 -0.082269646
000240 ed 6d 82 3d c6 d2 fe 3d c9 40 1a 3e 15 11 84 3d
       0.06368623 0.124425456 0.15063776 0.06448571
000250 4a 64 c5 3b 28 8d 87 3d a2 e5 75 bd 67 97 c5 3d
       0.0060239183 0.0661872 -0.060033448 0.09648018
000260 a8 08 8e bd a6 b9 35 3d 1c 67 13 be 13 86 db bb
       -0.06935245 0.0443665 -0.14394802 -0.0066993325
000270 7a 75 1a 3c 69 f1 7a 3b e1 10 0a 3e 3f 9a 06 3e
       0.009427423 0.0038290864 0.13483001 0.13144778
000280 9b 71 d8 3c e9 5d 13 3e ae a3 4c bd 6a a6 07 be
       0.026421359 0.14391293 -0.049960785 -0.13247076
000290 8e fc 23 bc 1d 95 c2 bd 0d 71 9a bd af a3 be 3d
       -0.010008944 -0.09501097 -0.07541094 0.09308564
0002a0 3c 5a f9 3d ae da b2 3d 4c 31 13 bd 0f b9 7e 3d
       0.12175414 0.08733116 -0.035935685 0.062188204
0002b0 95 75 0a 3c 43 ba 04 be 9f 42 04 be ae d0 d2 3d
       0.008450885 -0.12961678 -0.12916039 0.10293709
0002c0 65 e9 8a 3c db 7b bb 3c 75 0f 76 3d ca 68 c3 bd
       0.016956994 0.022886207 0.060073335 -0.09541471
0002d0 61 14 d7 3d 68 30 61 bd 25 71 6f bd dc 42 9e be
       0.10501934 -0.054977804 -0.058457512 -0.30910385
0002e0 f3 b7 b6 3d 65 1e 46 3d c6 6d 8c bd 65 9b 61 bc
       0.08921804 0.04836883 -0.06856875 -0.013769959
0002f0 d8 d8 e7 bd a5 1c 01 3d 92 8a a3 3d b4 02 14 3d
       -0.113206565 0.03152146 0.079854146 0.03613539
000300 f8 29 9f 3c e5 2e e3 bd 68 55 a5 bc 52 f1 6a bd
       0.019429192 -0.11092929 -0.020182326 -0.057359047
000310 6c 89 47 3d 81 87 c5 3d 74 63 76 3d ba 9e ea 3d
       0.04871504 0.09644986 0.06015344 0.11456056
000320 5d 73 f4 3b fb d6 93 3d 6a c6 5b bd 0e 00 97 bd
       0.0074600414 0.07218739 -0.05365602 -0.07373057
000330 5e eb c4 3d d2 ab 00 be 5b 8a b2 bd 3f 36 1d 3d
       0.09615205 -0.12565544 -0.087177955 0.03838181
000340 b3 77 f6 3d bf c6 e8 3d 9f d1 cc bd 64 f7 13 be
       0.120345496 0.11366033 -0.100009196 -0.14449841
000350 02 c8 82 3d c3 4e ae bd 9e 64 8d bd 85 86 e5 bd
       0.06385805 -0.08511116 -0.06903957 -0.11207298
000360 63 06 24 be 17 f0 a1 3c 1e d0 5c 3d af 00 df bd
       -0.16018061 0.019767804 0.053909414 -0.10888802
000370 a5 fa 40 3d e1 92 94 3d d2 3a f2 3c f0 5d e3 3d
       0.047114033 0.072545774 0.029569063 0.111019015
000380 1f 60 73 3d ba 95 11 bd d0 f1 9c bd 21 69 0a b9
       0.05941784 -0.03554318 -0.076633096 -0.00013199869
000390 28 8b 47 3d a2 0b 89 3c 9f 1e ca 3b 5a 39 d7 bd
       0.048716694 0.01672918 0.006168201 -0.10508986
0003a0 71 4b d6 bd 5f 1f 47 bb f8 f3 c2 bc 95 bb 04 3e
       -0.10463608 -0.003038369 -0.023797974 0.12962182
0003b0 f4 18 06 be 18 fd 37 bd ed 26 5f bc 7a c2 c0 3d
       -0.13095456 -0.044919103 -0.0136201205 0.094120935
0003c0 6b f8 3b bd 9d 1a 77 3d 4c 71 8e bd a4 b7 0f be
       -0.045891207 0.060328115 -0.069552034 -0.14034897
0003d0 08 79 db bd a5 e6 94 3d 75 0f 1f 3d 07 4e 0f 3e
       -0.10716444 0.072705545 0.0388331 0.13994609
0003e0 59 25 d0 3d 1f a9 0b 3d 5e a1 22 bc 22 e8 88 3c
       0.101633735 0.034096833 -0.009926168 0.016712252
0003f0 cc 2e 05 3d 52 88 da 3d e5 8c e1 3d 97 b2 01 be
       0.032515332 0.10670532 0.110132016 -0.12665783

net.4.bias f4 [48]
000000 a5 62 5a 3d 88 91 0e 3e 9c e6 34 bd 98 3a f1 3c
       0.05331673 0.13922703 -0.04416524 0.029446885
000010 e0 87 98 3d 93 3b 68 3d 5e 3c 8d 3d 3d db a7 3c
       0.07447791 0.05669744 0.0689628 0.020490283
000020 b0 41 14 3e 3a 41 fa bc 5d 3b 36 bd 48 16 24 3d
       0.14478183 -0.03054868 -0.044490207 0.04006031
000030 89 b8 08 3e ca f4 38 3d 9c f6 95 bd 4c 43 e2 bd
       0.13351645 0.045155324 -0.07322428 -0.11047992
000040 b0 34 68 bd fb bd 3a 3d 4b 14 d2 bc 05 63 39 bc
       -0.05669087 0.045591336 -0.025644442 -0.011315112
000050 c1 92 80 3d c4 19 f7 3d 37 70 b5 bd 95 28 dc bd
       0.06277991 0.12065461 -0.08859294 -0.10749928
000060 b7 e2 da 3d f6 67 c6 3d 05 70 00 3e f8 d2 12 3e
       0.10687774 0.09687798 0.12542732 0.1433829
000070 26 d0 8f 3b 2c b1 15 3c 4a e5 7b bb 7f 39 db bd
       0.004388827 0.009136479 -0.0038436227 -0.10704326
000080 d9 e0 62 3d 01 68 c7 bb 7f 82 78 3c 7a 0f e6 3d
       0.055390213 -0.0060853963 0.015167831 0.11233421
000090 19 ee fc 3d 61 5c 12 3d fa 0f a7 bd 40 1d ad 3d
       0.12350101 0.03573263 -0.08157344 0.084528446
0000a0 08 64 d0 bc bc 4c 12 be 24 d5 a5 3d b6 64 3f bd
       -0.025438324 -0.14287084 0.08097294 -0.046726905
0000b0 57 a8 3c 3d da d0 96 bd dc a8 c2 bd 29 05 0d be
       0.04605898 -0.07364054 -0.095048636 -0.137715

net.6.weight f4 [1, 48]
000000 01 37 de 3d ad 40 d9 bd 96 8c 30 3e 38 46 fe bd
       0.10850335 -0.10608039 0.1724113 -0.12415737
000010 67 c3 cf bd 86 ff 03 3d ba 48 a0 bc fa 63 b5 bd
       -0.10144692 0.032226108 -0.019565929 -0.0885696
000020 21 11 d7 bd bd bc 89 3c ec 49 27 bd 8c 5f b7 bd
       -0.10501314 0.01681363 -0.04084198 -0.08953771
000030 e0 b6 d3 3d 8f 60 fd 3c 69 81 1d 3d 73 b4 bc bc
       0.10337615 0.030929832 0.038453493 -0.023035264
000040 0f 1f bb bd f0 ba dd 3d 30 0b f2 3c 99 59 b3 bd
       -0.09136783 0.10826671 0.02954635 -0.08757324
000050 c7 76 d7 3d 12 e1 6e 3d b9 60 cc 3d 59 68 11 3e
       0.10520702 0.058320113 0.09979386 0.14199962
000060 86 87 fc bd 6b 07 d8 bd 61 87 6d 3d 0e 90 ad bd
       -0.123305365 -0.1054829 0.057990436 -0.08474742
000070 b8 25 d7 bd 0d bf 83 3e c4 64 c6 bc d0 28 d8 bd
       -0.10505241 0.25731698 -0.02421797 -0.10554659
000080 3b 9c 2a 3d 93 c2 ec 3d 57 bf f4 bd 9e f9 0f 3d
       0.0416529 0.115605496 -0.11950558 0.035150163
000090 7f 0f 45 3d a4 19 af 3d 24 89 b4 bc 49 31 20 bd
       0.04811048 0.085498124 -0.02203805 -0.039109502
0000a0 bc ff 62 bd 89 db 7a bd 03 13 c6 bd f8 ef 15 3c
       -0.05541967 -0.06124452 -0.09671595 0.009151451
0000b0 37 3f 89 bd e3 67 a0 3d 99 c2 9f bd be 20 b5 3d
       -0.067015104 0.07832315 -0.078007884 0.08844136
