Results/Archive_NNfile/pretrain_opt_18_new.pt (torch, 29847 bytes, 7 tensors)

net.0.weight f4 [48, 37]
0	0x3c2eba26	0.010664498
1	0xbc43c501	-0.011948825
2	0x3e1c7348	0.15278351
3	0x3c40d23f	0.011768877
4	0xbd0bf9e2	-0.034173854
5	0x3e0245db	0.1272196
6	0x3e3eb482	0.18623546
7	0xbe248ac2	-0.16068557
8	0xbd42d3b5	-0.04756518
9	0x3e2062f2	0.15662745
10	0xbe08c947	-0.13358031
11	0xbd2637af	-0.040580448
12	0x3e277997	0.16354977
13	0xbc9ac872	-0.018894408
14	0x3da6de93	0.081479214
15	0x3d0685a1	0.032842282
16	0x3c51b438	0.012799315
17	0x3b632b49	0.003466325
18	0xbcadffe4	-0.021240182
19	0xbe6832d7	-0.22675644
20	0x3de494e6	0.111612126
21	0xbb012f44	-0.001971201
22	0x3e5251b5	0.20538981
23	0xbdc3c943	-0.09559872
24	0xbd3c19c7	-0.04592302
25	0xbd8bdd67	-0.068293385
26	0x3d120791	0.035651747
27	0x3ca036a9	0.019557314
28	0x3d35d9e9	0.04439727
29	0x3d84bffa	0.06481929
30	0xbc4ac5ec	-0.01237629
31	0xbe02c3d1	-0.1277001
32	0x3dea40e7	0.114381604
33	0xbc8e7e71	-0.017394276
34	0xbd87be0a	-0.06628044
35	0xbda84d28	-0.082178414
36	0xbdcac41e	-0.09900688
37	0x3d745f5f	0.059661265
38	0xbdb93a44	-0.090443164
39	0x3c7d1df4	0.015449036
40	0x3ce54088	0.027984872
41	0x3da547d4	0.08070341
42	0xbdb4b1ed	-0.08822999
43	0x3db4f6fc	0.08836171
44	0x3de8b3f6	0.1136245
45	0xbe34c378	-0.1765269
46	0x3d98a89d	0.074540354
47	0xbcc9d83a	-0.024639238
48	0xbdccf7d6	-0.100082085
49	0xbe146cc3	-0.14494614
50	0xbe272284	-0.1632176
51	0x3cafd595	0.021464149
52	0x3d40582c	0.046959087
53	0x3d7cadbd	0.061689127
54	0x3ded4949	0.11586244
55	0x3de75b6a	0.11296733
56	0xbe14dbb8	-0.14536941
57	0x3ce5b88f	0.028042106
58	0x3c3cc22f	0.011520906
59	0x3de05ad3	0.10954823
60	0x3e18a709	0.14907469
61	0xbc37a4ca	-0.011208722
62	0x3d33c63d	0.043890227
63	0x3ded7ad3	0.115956925
64	0x3ddc3a76	0.10753338
65	0x3dcc4621	0.099743135
66	0xbd7d6f39	-0.06187365
67	0x3da2a45b	0.079415046
68	0xbb539731	-0.0032286162
69	0xbd6d6352	-0.057956047
70	0xbddd9a1f	-0.10820412
71	0x3e1cc980	0.15311241
72	0xbd941907	-0.07231336
73	0x3dbd8947	0.09254699
74	0x3e44edf7	0.19231401
75	0xbd6754de	-0.05647742
76	0x3d0af281	0.033922676
77	0xbdce37eb	-0.10069259
78	0x3cb3ffcc	0.02197256
79	0x3dd0fc0a	0.10204323
80	0xbc49afac	-0.01230995
81	0xbe1e680c	-0.15469378
82	0x3d79fc86	0.06103184
83	0x3bfac315	0.00765265
84	0x3d93878f	0.0720359
85	0x3dba4147	0.09094482
86	0xbe0982c0	-0.13428783
87	0xbc05fba2	-0.00817767
88	0xbdbf9d1d	-0.09356139
89	0x3dfba99a	0.12288208
90	0x3c2ca691	0.010537759
91	0xbcbaaef0	-0.022788495
92	0xbdb10a27	-0.086445145
93	0xbdf99793	-0.121871136
94	0xbd667ec5	-0.05627324
95	0xbd80d02a	-0.06289704
96	0xb95e7ad0	-0.00021217321
97	0xbdb24474	-0.08704463
98	0xbe09492f	-0.13406824
99	0xbd09a5c2	-0.033605345
100	0xbd97bfd7	-0.074096374
101	0xbe0a2d72	-0.13493899
102	0xbcc73c0e	-0.024320628
103	0xbe18df9f	-0.14929055
104	0xbd96a7c1	-0.07356215
105	0xbdaa0517	-0.08301752
106	0xbc9547c6	-0.0182227
107	0xbd8f2655	-0.06989733
108	0xbd1991ab	-0.037492435
109	0xbde9f3cc	-0.11423454
110	0xbd4880af	-0.048950847
111	0x3de73bbe	0.11290692
112	0x3c266f1d	0.010158327
113	0x3cb20a23	0.02173335
114	0x3dabbad8	0.08385247
115	0x3e30b0c2	0.17254928
116	0x3e12a3f7	0.1432036
117	0xbe04a07a	-0.12951842
118	0x3c0b37d1	0.008497194
119	0xbe2a0241	-0.16602422
120	0xbd8d9738	-0.06913608
121	0x3e077cf1	0.13231255
122	0x3cd2491f	0.025669632
123	0x3dc5da41	0.09660769
124	0xbd44e06a	-0.04806558
125	0x3cf0bb2f	0.029386131
126	0x3dfae1fc	0.12250134
127	0x3e0744c8	0.13209832
128	0xbde994eb	-0.11405357
129	0x3d37afd7	0.04484543
130	0x3da35c5a	0.07976599
131	0x3d12ae67	0.035810854
132	0xbd2ca46a	-0.042148985
133	0xbd469b08	-0.048487693
134	0x3ca4e257	0.020127458
135	0x3d50ac12	0.05094535
136	0x3c458895	0.0120564895
137	0xbe0e113e	-0.13873765
138	0xbce56243	-0.028000956
139	0xbd8a4b0a	-0.06752594
140	0xbbc982dd	-0.0061496333
141	0xbde04125	-0.10949925
142	0x3d1428fe	0.036171906
143	0xbe191ea4	-0.14953095
144	0xbe02566a	-0.12728277
145	0xbd91c507	-0.07117658
146	0x3d823371	0.06357468
147	0xbdbfc592	-0.093638554
148	0xbe3b5d4b	-0.18297307
149	0x3dd4ce07	0.10390859
150	0x3dc407ea	0.09571822
151	0xbd9fa3c9	-0.077949114
152	0x3e076428	0.132218
153	0xbd8a6d63	-0.06759145
154	0x3da57d24	0.08080509
155	0xbe2ec453	-0.17067079
156	0xbe379590	-0.17928147
157	0xbde1c863	-0.11024549
158	0xbe05ca12	-0.13065365
159	0xbe7d47cb	-0.24734418
160	0xbe8ee0ac	-0.27905786
161	0xbe1ba951	-0.15201308
162	0xbea01221	-0.3126383
163	0xbe641bc1	-0.22276212
164	0xbe81aca5	-0.2532703
165	0xbe52f43f	-0.20600985
166	0xbe6e7bf6	-0.23289475
167	0xbe3df17f	-0.18549155
168	0xbe1d5147	-0.15363036
169	0x3da6d22e	0.08145557
170	0xbda7296e	-0.08162199
171	0xbb416163	-0.002950751
172	0xbe235e50	-0.15953946
173	0xbd45c19d	-0.048280347
174	0xbd0233d7	-0.03178772
175	0xbde41154	-0.111361176
176	0x3c854e51	0.016272696
177	0xbdd1c0d4	-0.10241857
178	0x3d6c71c8	0.057725698
179	0xbc78e0e8	-0.015190341
180	0xbd0befb8	-0.03416416
181	0xbdc0bde6	-0.0941122
182	0xba24da18	-0.0006288602
183	0xbb6f8821	-0.0036549645
184	0xbe0db40f	-0.13838218
185	0x3e4aa68f	0.197901
186	0xbb9986d2	-0.0046852613
187	0x3e23f257	0.16010414
188	0xbd2ce9d6	-0.04221519
189	0x3e12ba12	0.14328793
190	0x3e312616	0.17299685
191	0x3e5d5029	0.2161261
192	0x3d5f6928	0.054543644
193	0x3e16dd85	0.1473294
194	0x3dfec188	0.12439257
195	0xbd98dfe5	-0.074645795
196	0x3e142ecf	0.14470981
197	0xbdb877b7	-0.09007209
198	0xbd70fdf5	-0.058835942
199	0x3e153d69	0.14574207
200	0xbd685eb3	-0.056730937
201	0xbc801e7f	-0.015639542
202	0x3da99fac	0.08282408
203	0x3d9a7974	0.075426966
204	0x3ddac9a3	0.106829904
205	0x3e20f39e	0.15717933
206	0x3def8cb2	0.116967574
207	0x3e09915e	0.1343436
208	0xbde080dc	-0.10962078
209	0x3bcd06b2	0.0062569017
210	0xbda17470	-0.07883537
211	0x3e0ecbcf	0.13944934
212	0x3d8dacdd	0.06917737
213	0xbb37d947	-0.0028053091
214	0xbdc67e2c	-0.09692034
215	0xbdb76326	-0.08954458
216	0xbc95d0bb	-0.018288007
217	0xbdc9b77b	-0.09849449
218	0x3d9f6fb0	0.077849746
219	0xbced0f7b	-0.028938046
220	0x3d242c8b	0.040081542
221	0x3db2f999	0.08739013
222	0x3dc86457	0.09784763
223	0xbadcdbc8	-0.0016850168
224	0x3df3c741	0.11903239
225	0x3c274079	0.010208243
226	0x3deab600	0.11460495
227	0xbda54027	-0.08068877
228	0xbcba08d8	-0.022709295
229	0x3cc780fa	0.024353493
230	0x3e185dbd	0.14879508
231	0x3e00ee6f	0.12590955
232	0x3d6e0c11	0.058116976
233	0x3dec573b	0.115400754
234	0x3df7f033	0.12106361
235	0xbdcc5cd9	-0.09978647
236	0x3dcbec71	0.09957207
237	0x3e33d82f	0.17562936
238	0xbdd6ccac	-0.10488257
239	0xbde4ebc7	-0.111777835
240	0xbd5f9155	-0.05458196
241	0x3d992823	0.074783586
242	0xbba08271	-0.0048983623
243	0xbd3717e2	-0.04470051
244	0x3dd77b9f	0.10521626
245	0xbe035ae2	-0.12827638
246	0xbdbe3b73	-0.09288683
247	0xbd2c41ba	-0.04205487
248	0x3e0d7f8a	0.13818184
249	0xbdedff90	-0.1162101
250	0x3dafafd1	0.08578456
251	0xbdf75c2c	-0.12078127
252	0xbd0c3ba2	-0.034236558
253	0xbc8f35f8	-0.017481789
254	0xbd88bd25	-0.066767015
255	0x3e025e87	0.12731372

net.0.bias f4 [48]
0	0x3e1068e0	0.14102507
1	0xbe54a9a6	-0.2076784
2	0x3de79a4d	0.113087274
3	0x3d64cacc	0.055857465
4	0x3da35b3d	0.07976387
5	0xbb25128b	-0.0025188054
6	0xbe53571b	-0.20638697
7	0xbdf8fc8f	-0.12157547
8	0x3d8e2891	0.06941331
9	0xbd8472cc	-0.06467208
10	0xbdc834eb	-0.09775718
11	0xbdf29462	-0.11844708
12	0x3e022f0e	0.12713262
13	0x3e2019b7	0.1563481
14	0xbcdc6738	-0.026904687
15	0xbe083fe6	-0.13305625
16	0xbdbb6749	-0.091505595
17	0xbde756a1	-0.1129582
18	0x3d8b6f61	0.06808353
19	0xb989b95b	-0.00026268777
20	0x3e1acd55	0.1511739
21	0x3e104497	0.14088665
22	0xbc0e5dcc	-0.008689355
23	0x3d8be1aa	0.068301514
24	0x3e1349e7	0.1438366
25	0xbd6e75c3	-0.058217775
26	0x3e097026	0.13421687
27	0xbd75db5c	-0.06002365
28	0x3ded56c5	0.115888156
29	0x3daf6040	0.0856328
30	0xbcee16be	-0.029063579
31	0xbe13cd05	-0.14433677
32	0x3d96729a	0.07346077
33	0x3d3dbf76	0.04632517
34	0x3dcb4c84	0.099267036
35	0x3d0b6f55	0.03404172
36	0x3b722cb7	0.0036952922
37	0xbcc2d4fa	-0.023783196
38	0x3ce863a3	0.028367823
39	0x3c0f05ac	0.00872938
40	0x3e22cb9b	0.15897982
41	0xbc3249ff	-0.0108819
42	0xbe2ce949	-0.16885866
43	0xbdb78e1a	-0.089626506
44	0x3d40f164	0.047105208
45	0xbd558684	-0.052130237
46	0xbd824cc7	-0.063623
47	0x3dc9d22a	0.09854539

net.2.weight f4 [48, 48]
0	0x3d154a63	0.036447894
1	0xbe2b3495	-0.16719277
2	0x3e3bb5e3	0.18331103
3	0x3e3cd219	0.18439521
4	0x3d064907	0.032784488
5	0x3da51f29	0.08062584
6	0xbdc6cfb5	-0.09707586
7	0xbdf636ed	-0.12022195
8	0x3dd15ea7	0.102231316
9	0x3df36582	0.118845955
10	0x3e0f2e71	0.1398256
11	0xbc9d8f86	-0.019233476
12	0xbdf1ac94	-0.11800495
13	0x3e06440c	0.13111895
14	0xbdc09c5d	-0.09404824
15	0x3d67ed95	0.05662306
16	0x3d9c8b91	0.07643808
17	0xbdefd4be	-0.11710499
18	0xbe4a5f0a	-0.19762817
19	0xbd9b5f60	-0.07586551
20	0xbe70556e	-0.23470089
21	0xbef0394d	-0.46918717
22	0x3dfd37d1	0.12364162
23	0x3dc61325	0.0967162
24	0xbe09e931	-0.13467862
25	0xbd1d1025	-0.038345475
26	0x3e426815	0.18985017
27	0xbb60f23e	-0.0034324075
28	0x3da7ed38	0.08199543
29	0xbdd96217	-0.10614412
30	0x3de4657d	0.1115217
31	0xbdca7052	-0.09884705
32	0x3e04f910	0.12985635
33	0xbde04fe9	-0.10952742
34	0x3dbb96c2	0.09159614
35	0xbd782c7c	-0.0605893
36	0xbdd2c700	-0.102918625
37	0xbf83a263	-1.0283931
38	0x3e62dbb4	0.22154123
39	0xbe05889e	-0.13040397
40	0xbe6e9f1d	-0.23302884
41	0x3d4e2659	0.05032954
42	0xbbfd3cee	-0.0077282107
43	0x3caf28c9	0.021381753
44	0x3e15882c	0.14602727
45	0xbd07ea1b	-0.033182245
46	0x3eb01702	0.34392554
47	0x3e0babdf	0.13639782
48	0xbcc54647	-0.024081362
49	0x3ddb1c7d	0.10698793
50	0x3def4753	0.11683526
51	0x3ddee5a4	0.10883644
52	0x3d87afb7	0.06625312
53	0x3d879a62	0.06621243
54	0x3d396b43	0.04526831
55	0x3b009b66	0.0019623875
56	0xbd20d6dd	-0.03926741
57	0xbd872f14	-0.06600776
58	0x3d93cf7a	0.072173074
59	0xbe3f32d8	-0.18671739
60	0x3d78ab37	0.06071016
61	0xbdb250ff	-0.08706855
62	0x3d63267e	0.05545663
63	0x3d92aec5	0.07162241
64	0xbadcc99c	-0.0016844752
65	0xbd75c5bd	-0.06000303
66	0xbc13b200	-0.0090146065
67	0x3da8fce7	0.08251362
68	0x3c01239a	0.007882023
69	0xbe031278	-0.12800014
70	0x3dfde580	0.12397289
71	0x3d9ae18f	0.07562553
72	0x3d17ed42	0.0370915
73	0x3d141bc7	0.036159303
74	0x3d01394b	0.03154878
75	0xbd291e7a	-0.04128883
76	0x3da20243	0.07910588
77	0xbd53e4cc	-0.05173187
78	0x3de2c151	0.110720284
79	0x3e089074	0.13336354
80	0x3d8a8948	0.067644656
81	0x3d614455	0.054996807
82	0xbdc3aa7c	-0.09554002
83	0xbd184185	-0.03717186
84	0xbabc6871	-0.0014374388
85	0x3dee71e9	0.116428204
86	0xbce503fa	-0.027955998
87	0x3bf2e86f	0.007412962
88	0x3d1ca9f4	0.038248017
89	0xbdb46de2	-0.08810021
90	0x3d3a6e58	0.04551539
91	0xbdb9d545	-0.09073881
92	0x3c8b3375	0.01699231
93	0x3dd4e644	0.10395482
94	0x3da4b679	0.080426164
95	0x3d841f06	0.0645123
96	0x3d49a2d6	0.049227558
97	0xbd83c073	-0.06433191
98	0xbc622aef	-0.0138041815
99	0xbbc9e4b0	-0.006161295
100	0x3e996cc5	0.29965797
101	0xbd9d0cc0	-0.076684475
102	0x3bdc909b	0.0067311055
103	0x3ac71a37	0.0015190308
104	0x3e373781	0.17892267
105	0xbc8b1f14	-0.016982593
106	0xbe27c254	-0.16382724
107	0xbd50a657	-0.050939884
108	0x3d577e2f	0.052610572
109	0x3d431d92	0.047635622
110	0x3d8546b8	0.06507629
111	0x3de2a923	0.110674165
112	0xbe0b35d0	-0.13594747
113	0x3db1866f	0.08668219
114	0xbebeca80	-0.3726387
115	0xbd88360c	-0.066509336
116	0xbecc3417	-0.3988349
117	0x3f4b6cf5	0.7946313
118	0xbd10fe64	-0.035398856
119	0x3e6d7b75	0.23191626
120	0x3c45dbdf	0.012076347
121	0x3e84792f	0.25873706
122	0xbe9f298a	-0.3108638
123	0xbe68b6b3	-0.22725944
124	0xbda4351e	-0.08017944
125	0x3d74081e	0.059578054
126	0xbd6703d1	-0.056400124
127	0x3c926590	0.017870694
128	0x3e11dd67	0.14244615
129	0xbd85c317	-0.06531351
130	0x3e350035	0.1767586
131	0x3e32952b	0.17439716
132	0xbdb6d9c0	-0.08928251
133	0xbd8bea05	-0.06831745
134	0x3cb161c4	0.021653064
135	0x3d6b6147	0.057465818
136	0x3de4590f	0.11149799
137	0x3e4468c5	0.19180591
138	0xbda3345c	-0.07968971
139	0x3d8f5e0c	0.0700036
140	0xbd92ba81	-0.07164479
141	0xbdae4973	-0.08510103
142	0xbd385990	-0.04500729
143	0xbb74c7b8	-0.0037350487
144	0xbd0e6f90	-0.034774363
145	0xbd79d581	-0.06099463
146	0x3e45363d	0.19258972
147	0xbe0f3bc7	-0.13987647
148	0x3d691f9a	0.056914903
149	0xbe0b0626	-0.13576564
150	0x3de8315a	0.11337538
151	0xbd816b17	-0.06319254
152	0xbe81cbad	-0.25350705
153	0xbdab5c68	-0.083672345
154	0xbe2ef81f	-0.17086838
155	0xbde26f70	-0.11056411
156	0x3cefd4b4	0.02927623
157	0x3dcedba0	0.10100484
158	0xbcb2f4f6	-0.021845322
159	0x3d825add	0.06364987
160	0xbd2ff068	-0.04295388
161	0xbde9e0db	-0.11419841
162	0xbceda85c	-0.029010944
163	0x3c0df6fb	0.008664842
164	0xbe8798d8	-0.26483798
165	0x3eaf101d	0.3419198
166	0xbe25f2e2	-0.16205934
167	0xbc7ac708	-0.015306242
168	0xbd204115	-0.039124567
169	0x3da91a78	0.08257002
170	0x3db6f262	0.089329496
171	0xbc006d9b	-0.007838632
172	0x3e17f75c	0.14840454
173	0xbd188c2d	-0.037243057
174	0xbe2b05b5	-0.16701396
175	0xbdda9d45	-0.10674528
176	0xbc8d30d5	-0.017235199
177	0xbe25a059	-0.16174449
178	0xbdb18adf	-0.08669066
179	0xbe4e3ba2	-0.20139936
180	0x3d921e1c	0.07134649
181	0xbc159818	-0.0091305
182	0xbe00bd05	-0.12572105
183	0x3cfafa90	0.030637056
184	0xbe0e5494	-0.13899451
185	0x3b2159cf	0.002462018
186	0x3d5d033a	0.053958155
187	0xbdc0d0d3	-0.0941483
188	0x3c500baf	0.012698098
189	0xbe0e8f29	-0.13921799
190	0xbbf351d4	-0.007425526
191	0xbc912b35	-0.017720798
192	0x3d8d04e3	0.06885698
193	0xbdca5268	-0.09878999
194	0x3e5425a8	0.2071749
195	0xbbd7a0bf	-0.0065804417
196	0x3cfb13f8	0.03064917
197	0xbd0b6e92	-0.034040995
198	0x3d5a95bd	0.053365458
199	0xbd8c3da0	-0.068476915
200	0x3cba0618	0.022707984
201	0xbda491ac	-0.08035597
202	0x3e3571e0	0.17719221
203	0x3bb0a040	0.005390197
204	0x3d95c53a	0.073130086
205	0xbacbfbc6	-0.0015562705
206	0xbda79083	-0.0818186
207	0x3d9a068f	0.07520782
208	0x3d2abd83	0.04168464
209	0x3ce8733d	0.028375262
210	0xbd963db0	-0.07335985
211	0xbd4fdfe7	-0.05075064
212	0x3df2371b	0.11826917
213	0xbd332a2f	-0.0437414
214	0xbdac21bd	-0.084048726
215	0xbdbee4a1	-0.09320951
216	0x3d961710	0.073286176
217	0x3e056ac4	0.13029009
218	0x3d5f379e	0.0544964
219	0x3d465862	0.048424132
220	0x3e2c8d03	0.16850667
221	0x3dca4f3c	0.09878394
222	0xbd730557	-0.059331264
223	0x3dc01d8f	0.09380638
224	0xbe3395bb	-0.17537586
225	0xbbd51a77	-0.006503399
226	0x3d844544	0.06458524
227	0x3d5d02e9	0.053957853
228	0x3b1fc002	0.002437592
229	0xbe2a630f	-0.1663935
230	0xbd85dcd3	-0.065362595
231	0x3de02160	0.10943866
232	0x3d303c43	0.04302622
233	0x3dfe567b	0.124188386
234	0x3e118eb9	0.142146
235	0x3d96ed6c	0.073695034
236	0xbd6fb886	-0.058525585
237	0xbd7bd09e	-0.06147825
238	0x3e13118b	0.14362161
239	0x3d98c30b	0.074590765
240	0xbc4a1b6e	-0.012335641
241	0xbc5fda94	-0.013662953
242	0xbdb98698	-0.09058875
243	0xbc8d9950	-0.01728502
244	0xbd8f91a7	-0.07010203
245	0x3d05e33b	0.032687407
246	0xbde27380	-0.11057186
247	0xbd5d5711	-0.05403811
248	0xbd3e6809	-0.046485934
249	0x3dd333a9	0.10312588
250	0xbcca9ceb	-0.024733027
251	0xbe3e1ef8	-0.18566501
252	0x3daceb79	0.0844335
253	0xbda33bf3	-0.07970419
254	0x3dace51b	0.08442136
255	0x3d2f4437	0.042789664

net.2.bias f4 [48]
0	0xbd93b6db	-0.07212611
1	0x3d159d07	0.036526706
2	0x3dd24d44	0.102686435
3	0x3d3d6984	0.046243206
4	0xbd5ae4c7	-0.053440835
5	0x3e00a006	0.12561044
6	0xbc8546b2	-0.016269062
7	0x3d6382c6	0.055544637
8	0x3d4b7bb0	0.049678504
9	0xbe061091	-0.13092257
10	0x3d8bd984	0.06828597
11	0x3d336761	0.04379976
12	0xbd716fa8	-0.058944374
13	0xbd88bc41	-0.066765316
14	0xbd39d998	-0.04537353
15	0x3ccd2ac2	0.025044803
16	0x3d723015	0.059127886
17	0xbe05dad9	-0.13071765
18	0xbe05bbf6	-0.13059983
19	0x3d87a775	0.06623737
20	0x3d89103c	0.066925496
21	0x3cb09e44	0.021559842
22	0x3dc29a81	0.095021255
23	0xbd20760e	-0.039175086
24	0xbdaefc81	-0.08544255
25	0xbcbbba02	-0.022915844
26	0xbdc5d296	-0.09659307
27	0xbde456ab	-0.11149343
28	0x3dee8c41	0.11647845
29	0xbd11c495	-0.035587866
30	0x3dfeaf36	0.124357626
31	0x3d09e647	0.033666875
32	0x3d471630	0.048605144
33	0x3d6a3283	0.057177078
34	0x3deb7a4c	0.11497936
35	0xbd23f857	-0.040031757
36	0xbc9d99c8	-0.019238368
37	0xbd81d199	-0.06338806
38	0xbc82be50	-0.015959889
39	0x3c6c5fd6	0.014427146
40	0x3da8a5f9	0.08234782
41	0xbdd8e1bb	-0.1058993
42	0x3e0b0e67	0.13579713
43	0x3d5375f3	0.051626157
44	0xbd93efa6	-0.07223444
45	0x3cd19ccd	0.025587464
46	0xbddb8c64	-0.10720137
47	0x3d826d56	0.063685104

net.4.weight f4 [48, 48]
0	0x3e0b83b3	0.13624458
1	0xbdd050a0	-0.10171628
2	0xbe8d2279	-0.27565363
3	0x3caf1c21	0.021375718
4	0x3e0bffd0	0.13671803
5	0xbd557171	-0.05211014
6	0xbd9721e2	-0.073795095
7	0x3ca84d49	0.020544665
8	0xbe2d9cd2	-0.16954353
9	0x3d78f4d6	0.06078037
10	0xbd2123cc	-0.03934078
11	0x3e1a36e4	0.15060002
12	0x3dec7d4f	0.11547338
13	0x3d9d7488	0.07688242
14	0xbde93b0e	-0.11388217
15	0x3e017c4b	0.1264507
16	0xbde4876a	-0.11158641
17	0x3d0ff22d	0.035143066
18	0xbda9d31d	-0.0829222
19	0xbd3b318c	-0.04570155
20	0x3d821f68	0.063536465
21	0x3f25399c	0.6454103
22	0x3e3b1a40	0.18271732
23	0x3dd1346d	0.102150775
24	0x3da87674	0.08225718
25	0x3e0c0ae0	0.13676023
26	0x3e165263	0.14679866
27	0xbd858cf1	-0.06521023
28	0xbe9f648c	-0.311314
29	0xbd8318c9	-0.06401212
30	0x3dcf2069	0.101136036
31	0xbdd0d6dd	-0.10197232
32	0x3da6f04b	0.08151301
33	0x3e2d4864	0.16922146
34	0x3d3e843c	0.046512827
35	0x3e03a2d8	0.12855089
36	0xbb8e0555	-0.0043341317
37	0x3cdf5082	0.027260069
38	0x3d809804	0.06278995
39	0x3a266bab	0.0006348441
40	0x3dc57ca5	0.09642915
41	0x3e09cd6e	0.13457271
42	0x3e158779	0.1460246
43	0xbd98ce4b	-0.07461222
44	0xbdd8c0ba	-0.10583635
45	0x3d803d77	0.062617235
46	0x3e0e8afa	0.13920203
47	0xbe22c043	-0.15893655
48	0xbc7185b7	-0.014741353
49	0x3d321980	0.04348135
50	0xbe3e6570	-0.18593383
51	0xbdafa213	-0.08575835
52	0x3e027317	0.12739216
53	0xbdfadbb5	-0.12248937
54	0xbd93bbea	-0.07213576
55	0xbddc0822	-0.10743739
56	0xbe0a8dd8	-0.13530672
57	0x3def7c72	0.11693658
58	0x3df538f9	0.11973757
59	0x3de53d1c	0.11193296
60	0xb9449fb4	-0.0001875151
61	0xbdb93781	-0.0904379
62	0xbe0da4d6	-0.13832411
63	0x3de2445c	0.11048195
64	0xbdd73777	-0.10508626
65	0x3d37049f	0.04468214
66	0x3db06d7b	0.08614632
67	0xbdbfa3e8	-0.093574345
68	0xbbc7e237	-0.006099965
69	0xbe96f79a	-0.2948578
70	0xbc69b435	-0.014264156
71	0x3d9b326a	0.07577975
72	0x3d6aa0ed	0.057282377
73	0xbdd8c5f5	-0.10584632
74	0xbd457bcc	-0.048213765
75	0x3d069c6d	0.032864023
76	0x3de441c4	0.11145356
77	0xbe09bbee	-0.13450596
78	0x3e1c0045	0.15234478
79	0x3e089645	0.13338573
80	0x3e0d492d	0.13797446
81	0xbdfca0a8	-0.1233533
82	0x3df01b35	0.11723939
83	0xbd91ed43	-0.07125332
84	0xbd4e39fd	-0.05034827
85	0x3dcdf117	0.1005575
86	0x3d05abb6	0.03263446
87	0xbd03b363	-0.0321535
88	0x3dd44e2a	0.10366471
89	0x3d559262	0.052141555
90	0x3ce4bbed	0.027921641
91	0xbb8dbbac	-0.0043253507
92	0xbe1e102d	-0.15435858
93	0x3d946cbf	0.07247304
94	0x3d396b1a	0.045268156
95	0x3d4421e1	0.047883872
96	0x3d4cb600	0.049978256
97	0x3df6a45b	0.12043067
98	0xbe7195ab	-0.2359225
99	0xbdea79d4	-0.11449018
100	0xbae1cc60	-0.0017227046
101	0xbd813476	-0.06308834
102	0x3cbbda2a	0.022931177
103	0x3e0e6740	0.13906574
104	0xbe48c269	-0.19605412
105	0x3b2c99fa	0.0026336894
106	0xbd900a26	-0.07033186
107	0xbdb2a201	-0.08722306
108	0xbcb94d02	-0.022619728
109	0xbdf6b4be	-0.120461926
110	0xbe0dbd82	-0.13841823
111	0xbdcb702c	-0.099335045
112	0xbd821e75	-0.063534655
113	0xbd0e8fe6	-0.0348052
114	0x3cc65ba7	0.024213625
115	0xbbc07819	-0.0058736918
116	0xbe00bd8b	-0.12572305
117	0x3f41e552	0.7574054
118	0x3d92220c	0.071354
119	0xbd17452c	-0.0369312
120	0x3d74e676	0.059790097
121	0x3dee7b21	0.11644579
122	0xbd8340cf	-0.06408846
123	0x3d16c903	0.036812793
124	0xbf0ab16e	-0.54176986
125	0x3dd5b89b	0.10435601
126	0xbcb6c949	-0.022312777
127	0xbf2e6d39	-0.6813541
128	0x3e13d0f4	0.14435178
129	0xbda2c5c9	-0.07947881
130	0xbc90cd7f	-0.017676113
131	0x3e2570ad	0.16156264
132	0x3de4e9d4	0.11177412
133	0x3cb5e0c6	0.022201907
134	0x3ddd094e	0.1079279
135	0x3b3838c1	0.002811
136	0x3da0058a	0.078135565
137	0x3e055403	0.13020329
138	0xbda3b50e	-0.07993518
139	0x3d1bae1b	0.038007837
140	0xbe2ad45f	-0.16682576
141	0x3d834f1e	0.06411575
142	0x3d8e68ea	0.069536045
143	0xbe516804	-0.20449835
144	0x3e1b8ecc	0.15191191
145	0xbcccc14a	-0.024994511
146	0x3c46b4d5	0.012128075
147	0x3dd96f4f	0.106169336
148	0xbd14c46a	-0.036320128
149	0x3dd948d8	0.10609597
150	0xbc3b6c20	-0.011439353
151	0x3d06f517	0.03294858
152	0xbc5afeab	-0.013366382
153	0x3ca91135	0.020638088
154	0xbd61c8fb	-0.05512331
155	0xbdf3484d	-0.11879025
156	0x3d68d834	0.056846812
157	0x3e08be2f	0.133538
158	0x3d7ad5ac	0.06123893
159	0xbc35fcf5	-0.011107673
160	0x3e02f95c	0.12790436
161	0x3d48c65b	0.04901729
162	0x3d4fe1f2	0.050752588
163	0xbb8252aa	-0.0039771395
164	0xbda6d3f6	-0.08145897
165	0xbebab631	-0.36467126
166	0xbc9b81c0	-0.018982768
167	0x3db864ac	0.09003577
168	0xbb06d9fa	-0.0020576701
169	0x3d578048	0.052612573
170	0x3da42027	0.08013945
171	0x3e0e0665	0.13869627
172	0xbd387360	-0.045031905
173	0x3d944dc0	0.07241392
174	0xbcb28e8f	-0.021796493
175	0x3c3ac117	0.011398575
176	0xbdb976c1	-0.09055854
177	0xbd26a45f	-0.0406841
178	0xbd7b9f37	-0.061431136
179	0x3beab919	0.0071631786
180	0xbd89cd13	-0.06728568
181	0xbceced5c	-0.028921776
182	0x3a89b0b0	0.0010504927
183	0x3da290fd	0.079378106
184	0x3e0d105d	0.13775773
185	0x3da5798d	0.080798246
186	0x3e082188	0.13294041
187	0x3e025cd6	0.12730727
188	0xbdf9f22f	-0.12204396
189	0x3dd93920	0.10606599
190	0x3bc6c0cd	0.006065464
191	0x3bd0ecd9	0.0063758907
192	0x3c64764a	0.013944218
193	0x3d559691	0.052145544
194	0xbdccdb3c	-0.10002753
195	0xbd73575b	-0.05940948
196	0xbd282772	-0.041053243
197	0x3e07843a	0.13234034
198	0x3d3c04f1	0.04590315
199	0xbdf02c01	-0.11727143
200	0xbda2a3cd	-0.07941399
201	0x3de07300	0.109594345
202	0x3e0471cd	0.12934037
203	0xbe6715e9	-0.22566952
204	0xbe11e7a2	-0.14248517
205	0x3d609846	0.05483272
206	0xbcbfc19a	-0.023407746
207	0xbdfdc84a	-0.12391718
208	0xbdc7fe50	-0.09765303
209	0x3c85143f	0.016245006
210	0x3d7c6214	0.061616972
211	0x3df32262	0.118717924
212	0xbd102fd4	-0.035201862
213	0x3dcc741f	0.09983086
214	0x3cbd805d	0.023132497
215	0xbdaca1cc	-0.08429298
216	0x3c6a43ae	0.014298363
217	0xbd6d8174	-0.057984784
218	0xbd5e8736	-0.054328166
219	0xbcd811ca	-0.02637567
220	0x3c55ca41	0.013048709
221	0x3e06a2f4	0.13148099
222	0x3e02229a	0.12708512
223	0xbdf20ee8	-0.118192494
224	0x3d935986	0.071948096
225	0x3e147e89	0.14501394
226	0xbdbf16a5	-0.09330491
227	0xbc664175	-0.014053692
228	0x3db75500	0.08951759
229	0x3ad52cc2	0.0016263949
230	0xbd23d36a	-0.039996542
231	0x3dd1934f	0.10233175
232	0xbdfe90c7	-0.12429958
233	0xbd14c9ce	-0.03632527
234	0x3d9ee828	0.07759124
235	0xbd9f9fba	-0.07794137
236	0x3cd596ae	0.026072826
237	0xbdff2f1c	-0.12460157
238	0x3d10c348	0.035342485
239	0xbe3b25a0	-0.18276072
240	0xbd7fef27	-0.062483933
241	0xbcfbdb1d	-0.03074413
242	0x3e0e8a62	0.13919976
243	0x3dbebca4	0.09313324
244	0xbe162942	-0.14664176
245	0x3d1c1aa2	0.038111337
246	0x3db08cc5	0.086206
247	0xbb40ee9d	-0.00294391
248	0xbcc32a9e	-0.023824032
249	0x3e0b937a	0.13630477
250	0x3e04fed8	0.1298784
251	0x3d268868	0.04065743
252	0xbdb90e88	-0.09035975
253	0x3d5d9395	0.054095823
254	0xbd259160	-0.040421844
255	0x3c16ffc4	0.009216253

net.4.bias f4 [48]
0	0xbd807438	-0.06272167
1	0x3df15ffb	0.11785885
2	0x3d118e02	0.03553582
3	0x3d254fb2	0.040359206
4	0xbd3a37bd	-0.045463312
5	0xbd15a4b4	-0.036534026
6	0x3dcbee79	0.099575944
7	0x3d37a02e	0.044830494
8	0x3d19a9d7	0.037515488
9	0x3da232d1	0.07919849
10	0x3d8f06e0	0.06983733
11	0xbc66ed00	-0.014094591
12	0x3c9ce7d8	0.01915352
13	0x3e06ef59	0.13177241
14	0xbe071e88	-0.1319524
15	0xbd97c5cd	-0.074107744
16	0xbdf9f2db	-0.12204524
17	0xbda3da3a	-0.08000608
18	0xbda204df	-0.07911085
19	0xbe140c1c	-0.14457744
20	0xbd624ed8	-0.055250973
21	0x3d84c897	0.06483572
22	0x3d3ab343	0.045581114
23	0x3e05553d	0.13020797
24	0xbd9ae24d	-0.07562695
25	0x3d726821	0.059181336
26	0x3c48a549	0.012246438
27	0xbe04be66	-0.12963256
28	0x3cb192f7	0.021676524
29	0x3d9d47d9	0.076797195
30	0x3d479091	0.048721854
31	0x3cfb9dc1	0.030714871
32	0xbe0da659	-0.13832988
33	0x3da3d2ef	0.07999217
34	0x3dad7af7	0.08470719
35	0x3d97ee8d	0.07418547
36	0xbce02876	-0.027363043
37	0x3d69d331	0.057086173
38	0xbe0fe770	-0.1405313
39	0x3bbd0e8a	0.0057695555
40	0x3c9eb4da	0.019373346
41	0xbcddb382	-0.027063135
42	0x3c8e1d94	0.017348088
43	0x3deda770	0.11604202
44	0xbdd97e96	-0.106198475
45	0x3bf721a7	0.0075418535
46	0x3d68378b	0.056693595
47	0xb92dd271	-0.00016576961

net.6.weight f4 [1, 48]
0	0x3d8c7906	0.06859021
1	0x3df3e8c9	0.119096346
2	0x3dfd8b76	0.12380116
3	0x3d480a38	0.04883787
4	0x3da4d1a0	0.08047795
5	0xbe0c8f26	-0.13726482
6	0x3d60485a	0.0547565
7	0xbda8de51	-0.082455285
8	0x3dcebe3f	0.1009488
9	0xbc40fe9f	-0.011779456
10	0xbe352284	-0.17688948
11	0x3db5194e	0.08842717
12	0xbde080b2	-0.10962047
13	0x3dbe5e1a	0.09295292
14	0xbe0b88b5	-0.13626368
15	0xbe3ec880	-0.18631172
16	0x3e0180cb	0.12646787
17	0xbd521916	-0.051293455
18	0x3d6faf86	0.058517
19	0xbc98079a	-0.018558312
20	0x3de0720b	0.10959252
21	0x3c13dc42	0.0090246815
22	0xbdc698fd	-0.09697149
23	0x3c8212e7	0.015878154
24	0x3b25b79f	0.0025286449
25	0x3cb9978f	0.022655277
26	0xbe4e00a6	-0.20117435
27	0xbde17646	-0.11008887
28	0x3d0108d7	0.03150257
29	0xbe200ca4	-0.15629822
30	0x3d80238d	0.06256781
31	0x3e54c0c7	0.20776664
32	0xbc3d4f93	-0.0115546165
33	0x3d727a54	0.059198692
34	0x3e0048e3	0.12527804
35	0xbdbdc21e	-0.092655405
36	0x3d49ba98	0.049250215
37	0xbe7e6480	-0.24843025
38	0xbd664609	-0.056219134
39	0x3cebf1a8	0.028801754
40	0x3c5a9031	0.013340042
41	0x3c1a459b	0.009416009
42	0x3bd57a9a	0.0065148594
43	0xbba5d768	-0.005061079
44	0x3dcd9be8	0.100395024
45	0x3e056dca	0.13030162
46	0x3e08c7aa	0.13357416
47	0xbd292ce5	-0.04130258
