Results/Archive_NNfile/pretrain_opt_10_new.pt (torch, 26775 bytes, 7 tensors)

net.0.weight f4 [48, 21]
00000000: d8fa f6bd 58d4 1ebe 728d ef3d 8e12 a2bd
00000010: b690 dbbd 1ce0 073e 896e 0a3e 4de9 1abe
00000020: 62a1 0dbe 821e 353e 39e6 3fbe c173 5fbd
00000030: 56a9 643e b3a0 babd 420a e53d cb85 133d
00000040: e245 ca3c b02d aabb 82b3 513d 4ebb 44be
00000050: 0bee ef3d bd46 9ebd e0f8 4e3e 56ba f2bd
00000060: 9f9b b6bc 760b 01be d859 a43d a07b dd3d
00000070: 5b62 85bc a415 f53d e2ad 4bbd fff7 3ebe
00000080: d1f6 263e fe34 85bd 07dd 99bd 5407 9cbd
00000090: d083 e8bd 2694 1bbc 4007 f1bd cab6 813d
000000a0: be66 ba3c 20c4 bb3d de17 45be 00ee 403d
000000b0: 6193 a83d 11c2 6abe 860f be3d 86da a1bd
000000c0: 9542 2bbe e59e 21be 9701 59be 0eb8 18bc
000000d0: 4da3 a63c 7e20 ee3d 1455 343e 37aa ad3d
000000e0: 6b54 54be 6173 273e 836b abbb 9d74 013e
000000f0: fa57 443e 85d7 2abd d7a6 093d 4a4f 623e
00000100: e64d 9b3d 88e2 8d3d b681 0cbe 1966 e03c
00000110: fcd2 77bd 472e ffbd 764d 39be 5b3c 243e
00000120: d007 eebd c010 813d 85f6 273e effb e9bd
00000130: 065f 79bd 9813 40be ae61 453c 97de 033e
00000140: 3b4e 0cbd 9053 44be 9648 c83c 4e23 62bd
00000150: 1edb ff3d e4cb 9d3d e8c0 7ebd 11bb b4bd
00000160: d2ff 19bd c050 353e cd0f 023e 3b33 fc3c
00000170: 8cb5 233e 9462 303e 1587 d1bd 2231 f9bd
00000180: 5170 81bd 9760 c5bc 2701 2abe 74de cb3d
00000190: de86 3dbe fa55 59be 89e0 3bbe ce5f 71be
000001a0: a164 2dbd 3dcf b1bd 2e6a 043e 39c4 933d
000001b0: 32da 01be a785 17be f282 653d 1bdc 043e
000001c0: a5f7 1bbe 1f20 9fbc 83cd 3c3c 774d 2e3e
000001d0: c4e5 483e 4d90 3bbe 4bed 18bd 361f 7abe
000001e0: 5561 80bd 8167 6b3e 83ed 84bc 3d3e 113e
000001f0: dcfb f2bd 96e4 6d3d a4f9 543e 376a 4f3e
00000200: 0586 44be 89f8 fb3d c8e6 943c 38c7 40bd
00000210: 5600 dbbd b6fc d9bd c340 b63d d283 b03d
00000220: e93e 5d3d ed80 22be 3241 f43b e557 14bd
00000230: 625c 833d 2564 70bd d5f5 f83d dca5 39be
00000240: 4e92 eabd 3cf4 b6bd d97c 353e 00fb 533c
00000250: ed9a ba3c 42ba 733e 8e0e 4c3e e45a 953d
00000260: ab22 793e dab6 733b b097 2f3e e9de ac3c
00000270: 7169 0e3e 6c41 963d de8d 83bd 6101 bbbd
00000280: 2fdd ebbd 115d 01be f2ba 63be 5214 10bd
00000290: 8dc8 22bc da5b 61be f913 22be d73f 5ebe
000002a0: f135 7abe 15b3 043e f949 97bd 17f3 b63d
000002b0: c1f7 29be 3762 803d 537c 693d 71bd 95bd
000002c0: 50f9 41bc 10f1 91bd 27bf 273e 6143 9f3d
000002d0: 9b69 99bd 27ec 25bd 032d cd3d bb25 543e
000002e0: 25c7 1dbe de21 133e 0217 50be cdb3 d63d
000002f0: 7c3d 2abe 8920 cb3d 5376 003e 6c83 3f3e
00000300: 2c64 2e3d 2717 1d3e 5817 de3d 90fe 00be
00000310: cff5 2d3e cc49 03be 549e 1abe df13 413e
00000320: 50d9 06be 1189 9cbd 3db3 8c3d 9277 be3d
00000330: 10e5 b23d dacb 4a3d fda2 943b c382 ee3c
00000340: 3f47 20be c874 ecbc 9423 25be 7990 423e
00000350: 477b 8f3d ac5b 063d 5352 10be 7dd2 93bd
00000360: 7903 59bb 8a5b d4bd 2e0a c33d 831a 73bc
00000370: 7cde c43d 9f95 023e aa91 c13c fc10 aa3d
00000380: 170c 463e 24f1 9a3d 379e 5b3e 356a 25be
00000390: 80ac 78bc 8e29 92bd e718 583e ce1a 3e3e
000003a0: 4dd8 8e3c 66df c53d 154e 293e 3f17 a4bd
000003b0: 20a1 953d 5715 213e d95d 0fbe 1b6c 03be
000003c0: 0470 25be 6d8d fa3d 0136 9ebc 6169 8dbd
000003d0: 2478 0e3e 5651 36be a100 ddbd cc6f 6fbd
000003e0: 0690 353e 898e 58be 30f5 4d3e b484 3cbe
000003f0: 1bec 06bc 0d11 003d f76a ef3c 3686 4d3d
-0.120595634 -0.1551069 0.116969004 -0.07913695 -0.10720961 0.13269085 0.13518728 -0.1512806
-0.13831094 0.17687419 -0.18740167 -0.05455375 0.22330222 -0.09112682 0.11183597 0.036016267
0.024691526 -0.0051934347 0.051196583 -0.19212076 0.11715325 -0.07728336 0.20212126 -0.11851947
-0.022291003 -0.12602028 0.08024949 0.10814595 -0.016282251 0.11967018 -0.049726374 -0.1864929
0.1630509 -0.06504248 -0.07512861 -0.07618585 -0.11353266 -0.009495771 -0.11768961 0.06333692
0.02275407 0.09168267 -0.19247386 0.047101974 0.08231235 -0.22925593 0.092803046 -0.07903008
-0.16724618 -0.1578327 -0.21192013 -0.009321226 0.02034154 0.11627291 0.1761058 0.084797315
-0.20735328 0.16352607 -0.0052313223 0.1264214 0.19174185 -0.04170944 0.033606376 0.22100559
0.07583217 0.06927973 -0.13721356 0.027392434 -0.060503945 -0.124599986 -0.18095955 0.16038649
-0.11622584 0.06302023 0.16402633 -0.11425006 -0.060881637 -0.18757474 0.012047214 0.1287788
-0.034254294 -0.19172502 0.024448674 -0.05520945 0.12492965 0.07704905 -0.06219569 -0.088247426
-0.037597485 0.17706585 0.1270134 0.030786147 0.15987223 0.17225105 -0.10230843 -0.121675745
-0.06320251 -0.02409391 -0.16602002 0.09954539 -0.18508479 -0.21224204 -0.18347372 -0.23571703
-0.042332295 -0.08682106 0.1293113 0.07215161 -0.12680891 -0.14797078 0.056033082 0.12974589
-0.15231188 -0.019424496 0.011523607 0.17021738 0.19618899 -0.18316765 -0.037335675 -0.24425969
-0.062685646 0.22988702 -0.016226536 0.14183898 -0.118644446 0.058079325 0.20798355 0.20255361
-0.1919175 0.12303264 0.018176451 -0.04706499 -0.106934234 -0.10643904 0.08899071 0.08618893
0.054015074 -0.15869494 0.007454061 -0.036216635 0.06414105 -0.058689255 0.12156264 -0.18129677
-0.11453687 -0.08933303 0.17723407 0.012938261 0.022778952 0.2380152 0.19927427 0.07292727
0.24329631 0.0037187845 0.17147708 0.021102386 0.1390741 0.07336697 -0.064235434 -0.091311224
-0.11516797 -0.12633158 -0.22239283 -0.03517563 -0.00993551 -0.22007695 -0.15827931 -0.2170404
-0.2443464 0.1295894 -0.07387156 0.089330845 -0.16598417 0.06268733 0.05700333 -0.07311524
-0.011839226 -0.07126057 0.16381513 0.077765234 -0.07490846 -0.040508416 0.10018351 0.20717518
-0.15407999 0.14368388 -0.20321277 0.10483513 -0.16625017 0.09918315 0.12545137 0.18702477
0.042576 0.15340863 0.10844296 -0.12597108 0.169883 -0.1282112 -0.1509946 0.18855236
-0.13168836 -0.07643331 0.068701245 0.0930015 0.087350965 0.049510814 0.0045360313 0.029115086
-0.15652178 -0.02886428 -0.16126853 0.19000424 0.07005935 0.03280227 -0.14093904 -0.07217882
-0.0033113642 -0.10369022 0.09523426 -0.014837864 0.09612748 0.12752388 0.023629028 0.08304021
0.1934055 0.07565525 0.21447073 -0.16153796 -0.015177846 -0.07136832 0.2110325 0.18564913
0.017437125 0.096617505 0.16533692 -0.08012246 0.07306123 0.15730797 -0.14000644 -0.12834208
-0.16156012 0.12234006 -0.01931286 -0.06904865 0.13913018 -0.17804465 -0.107911356 -0.058456227
0.17730722 -0.21148123 0.20113063 -0.18409997 -0.008235003 0.03126626 0.02922581 0.05017682

net.0.bias f4 [48]
00000000: 009d 263d 7b96 0abe f9de 803d 9d01 1c3e
00000010: 9e73 273e 4f9e 253e 2f8f b93d 473d 0e3e
00000020: fa4e 4d3e dd5f 3e3c 8b23 8c3d f95a 38be
00000030: 42ed 953d 0d8e 6cbe 4c2c 01be 1af4 b43d
00000040: ed27 253e 4ef3 fcbd b32d 1fbc 41f6 d53d
00000050: 1b3e 9fbd bda0 06bd 0a47 43be 2171 f83b
00000060: 2374 5cbe 6b0e f23c af81 833d b294 c6bb
00000070: 01ae 9d3d 606d af3d d15e 293e c7c5 033e
00000080: 6040 d93d 9ee4 8abd 82b8 873d d32d f03d
00000090: 1ff2 74be 0b47 a1bd b1b4 9d3d 343b 0abe
000000a0: 5cb8 9abd 9b3b 063e de81 dc3d 71aa 8b3c
000000b0: fe9a 8f3b 6410 ebbd cb50 1f3e b8a1 083d
0.04067707 -0.13533966 0.06292529 0.1523499 0.16352698 0.16173671 0.09060513 0.13890563
0.20049658 0.011619535 0.06842717 -0.18003453 0.07320644 -0.23101063 -0.12614554 0.08835621
0.16128512 -0.12351094 -0.009715485 0.1044736 -0.077755176 -0.032868136 -0.19070068 0.0075818454
-0.21528678 0.02954789 0.064212196 -0.0060602063 0.07699204 0.085657835 0.16540076 0.12868415
0.10607982 -0.067818865 0.06626989 0.1172749 -0.23920487 -0.078748785 0.0770048 -0.13499147
-0.07554695 0.13108675 0.10766958 0.017049046 0.00438249 -0.11477736 0.15558164 0.033357352

net.2.weight f4 [48, 48]
00000000: 2c19 01be d977 cebd 7664 d53d 42fe eabd
00000010: 06a5 9ebb fd1e cabd 794d 133d 36c0 bc3d
00000020: 1df3 a2bd aa3e 203d fd63 fa3d 7649 b2bd
00000030: 33bc 95be 97fb f7bb 8f2c 0f3d 3888 8c3d
00000040: f3ea cbbc 4fb6 b9bc e3b8 5dbe e442 db3c
00000050: 8d86 053c a55d d6bd 413b 3a3e 478b 863d
00000060: aefd 8f3d c54a d73d 7b7f b33d f649 c53d
00000070: 9ab3 8fbc dab4 6b3d 2404 32bc c5e0 85bd
00000080: 05dd 88bd 9414 c93d 92fe be3d a797 71be
00000090: 2f2d 223d 070d e6bd 6af5 0d3d 3f3d cbbd
000000a0: 6b1a 0bbd 401f c43d 4b9e c63d d2c0 e7bd
000000b0: 81e0 ee3d c677 05be 589a 6a3d a396 f03c
000000c0: d8f0 173e 10eb bc3d 18c7 ac3d 281a e2bc
000000d0: ccf9 3cbd ec41 8d3d 6aba a33d 6d31 51be
000000e0: 4a18 37bd 8b7c cabd ddae 7ebd 0023 11be
000000f0: c82a eabd d9b0 643e 39ba 993d 146a 873d
00000100: d11d b63d 325f bf3d fc9d d5bb ed77 013e
00000110: 5d1b c2bd 2288 043e f29e 913c 146f 223d
00000120: 82b7 823d 009e 203d 6c1e 3e3c afa9 d3bd
00000130: fdd5 bbbd d8f3 babd 7102 4c3c fb00 debd
00000140: 666c 853d 4f45 7bbb 7085 a03d 1be0 5cbd
00000150: 7414 1f3e 871d c13c fbba dc3d c461 f73c
00000160: a6b9 ccbd 40e6 cf3c d650 3dbb 2950 94bd
00000170: 61c4 763c ee13 973d dfe2 a13d 792f 693b
00000180: 7b75 773d 784f 0e3e f78e c7bb ff0d cabd
00000190: b88a 4bbe 1144 3a3e a963 a4bb bb8f e13a
000001a0: bbc1 0a3e 459a 12bc 0a96 563d 5d86 8f3d
000001b0: 111b c23e 3e82 d03c ebb0 883d ed85 283d
000001c0: 2a98 863d f722 e8bd 1d74 b1bc b1b0 da3d
000001d0: 53cf 54bd c2bb 8abd 8055 b8bd c7b6 473d
000001e0: f40e 363d b401 12bc 10cd e83d fb3e 12be
000001f0: eb28 b83d d034 663e 85df 943d ac92 003e
00000200: 63d7 543a 5c89 23be 675a a1bd f858 c83d
00000210: 4c1c 8bbd 4b27 ad3c 5f45 e13c 017a 81bc
00000220: acc8 3dbc e279 97bd cbd8 73bc 8980 5fbd
00000230: 49e1 e2bd a748 06be e3fc f93d b61f 853c
00000240: 05c1 e63d c35e 9c3c b43a e93d eb68 02be
00000250: 5f13 253c 13f0 f43d 0c5f 92bc 36fd 87bc
00000260: 2aa9 4c3e 59f0 67be 971b 5e3d 1b0f c23d
00000270: bb9f 093c 14a0 d83c 293a 0abe e587 c3bc
00000280: 382c 503d 7ac8 bc3b baed d8bd ff10 19be
00000290: d933 e43d 53eb cd3d 5ffe 8dbd e6ef 53be
000002a0: 9e5a 9bbd ded8 d1bd 61b1 443e 8181 acbe
000002b0: 88e7 f9bd eaae 903e 56d2 62bd dd4d f0bb
000002c0: 5a25 123d e522 173e cd29 28be 2b4e 8b3e
000002d0: 65fd 793d c3e3 dfbd f735 1b3e fb28 54bd
000002e0: 60a8 f33c 2fe6 35be 3f48 8fbd e21f e3be
000002f0: 7c28 c7bd fdd3 57bc 93e5 a8bd c926 0dbc
00000300: a5e3 21bd a37b 023e dd7e ffbd 2088 a73c
00000310: 5a4c 303d 6b58 fdbc fa9a 14be 989f 71bd
00000320: ac0d bf3d 7882 dabc d0ab dbbc 28fc 2e3d
00000330: 6211 013f 1766 bf3d aad4 80bc 1246 b53d
00000340: 7121 1abe 9afe 163c c0c2 813d b58e a83c
00000350: eefd ebbd ac0a 013e 27ef 83bd eae2 a3bc
00000360: 6035 f03d eb4f 14bc 28d9 d03b 6e88 cb3d
00000370: 047f a7bd d3e5 783c de1a 18be 4459 a73d
00000380: 6d7d 12be f97c fb3d 1a05 e1bd 9d6a 2cbe
00000390: f999 f2bc 0f56 ba3d 756b 113e 3f42 133d
000003a0: 4bb6 5cbc 7f5c c5bd 7e0a bfbc 211b ef3c
000003b0: 07bf 043c 98df 593d 3369 1c3e 6244 58bd
000003c0: 7846 853d c632 db3d f881 a7bb 4979 6dbd
000003d0: 5fa8 a53d 8be1 153c b86b fcbd 3259 733d
000003e0: 2f24 25bb d47e d6bd 6022 3a3d f119 7b3d
000003f0: 9c36 abbd 9847 0cbe 97f6 523d 074e f43d
-0.12607259 -0.10081453 0.10419552 -0.11474277 -0.0048414497 -0.09869192 0.035962556 0.09216349
-0.079565264 0.03912226 0.122261025 -0.08705418 -0.29245147 -0.0075678336 0.034954604 0.06861919
-0.024892306 -0.02266994 -0.2165256 0.026765294 0.008149755 -0.1046708 0.18186666 0.06569534
0.070308074 0.10512308 0.08764549 0.096332476 -0.017541695 0.05754552 -0.010865245 -0.06537012
-0.06682781 0.09818378 0.09325899 -0.23593007 0.03959387 -0.112329535 0.034657873 -0.09923791
-0.03396074 0.09576273 0.09698161 -0.113160744 0.116639145 -0.13033971 0.0572761 0.029368704
0.14837968 0.09224522 0.084364116 -0.027600363 -0.046136662 0.06897339 0.0799454 -0.2042901
-0.0447009 -0.09887036 -0.06217848 -0.14173508 -0.11433941 0.22333087 0.07506222 0.0661203
0.08892406 0.09344329 -0.0065190773 0.12643404 -0.094778754 0.12942556 0.017775986 0.039656714
0.063826576 0.03921318 0.011603933 -0.10335099 -0.091716744 -0.09128541 0.012451754 -0.10840031
0.06514816 -0.0038340872 0.07837951 -0.05392466 0.15535146 0.02357365 0.10777851 0.030197985
-0.09996347 0.025378346 -0.0028887293 -0.07241852 0.015061469 0.07376848 0.079046 0.0035581274
0.060414772 0.13897502 -0.006090041 -0.09865951 -0.19877136 0.18190028 -0.005016763 0.0017208973
0.13550465 -0.008947914 0.052389182 0.0700805 0.37911275 0.02545273 0.066743694 0.041143347
0.06571992 -0.11334794 -0.021661812 0.106782325 -0.051955532 -0.06774093 -0.09000683 0.048758294
0.044447854 -0.008911539 0.113672376 -0.14281838 0.089921795 0.22481084 0.072691955 0.12555951
0.00081192533 -0.15970367 -0.07878571 0.097825944 -0.067925066 0.0211369 0.027498899 -0.015805246
-0.011583488 -0.07396294 -0.01488323 -0.05456594 -0.11078126 -0.13113652 0.122064374 0.016250473
0.11267284 0.019088155 0.1138815 -0.12735336 0.010075419 0.11959853 -0.017867588 -0.016600233
0.19986406 -0.22650279 0.05422553 0.094755374 0.008399899 0.026443519 -0.13498749 -0.02386851
0.05082342 0.0057612034 -0.10592218 -0.1494789 0.11142702 0.1005465 -0.06933283 -0.20696983
-0.07585643 -0.10246442 0.1920829 -0.33692554 -0.12202364 0.2825845 -0.055376373 -0.007333501
0.035680152 0.14759405 -0.16422196 0.27208075 0.06103267 -0.10932114 0.15157305 -0.051796895
0.029743373 -0.1776359 -0.06996202 -0.44360262 -0.09724519 -0.013173101 -0.08246913 -0.008615204
-0.03952374 0.12742476 -0.12475369 0.020450652 0.043041565 -0.03092595 -0.14512244 -0.05899009
0.093287796 -0.02667354 -0.026815325 0.042720944 0.5041715 0.09345644 -0.015726406 0.088512555
-0.1505182 0.009215975 0.06335974 0.02057586 -0.115230426 0.12601727 -0.06442099 -0.020005662
0.117289305 -0.009052257 0.0063735433 0.09938131 -0.08178523 0.015191513 -0.14853999 0.08171323
-0.14305659 0.12279696 -0.10987301 -0.16837545 -0.029614436 0.090984456 0.14201148 0.03595185
-0.013471196 -0.09636783 -0.023320433 0.02918774 0.008102185 0.05319175 0.15274505 -0.05279959
0.065075815 0.10703044 -0.005111929 -0.057976995 0.08088755 0.009148012 -0.12325233 0.059411235
-0.002519857 -0.10473409 0.04544294 0.061304037 -0.08360025 -0.13699186 0.051504698 0.11928945

net.2.bias f4 [48]
00000000: 9ae0 4abc c3a4 0cbe a848 df3d 1605 383d
00000010: d9ed e43c c038 89bd 05a3 e3bd c8a3 933d
00000020: 7699 cfbc 159c 1ebe 4a62 50bd be5d e53d
00000030: 6431 743c 4380 a33d 2b00 a43d a8be 013e
00000040: ac28 8ebd b1dd 42bd be0f 39bb 0429 373d
00000050: 13ab 9ebd 5aad 2e3d 7a71 01bd 863d 173d
00000060: 0a55 a23d 7178 09be 50aa a43d dcd4 a1bd
00000070: e8ae 20bd 72f2 eebb 6b8d 253e 8797 323d
00000080: fd4f bd3d 9c5e ff3d a4d4 1e3d fcbb f93d
00000090: 0f66 973d de3c a9bd f7b3 983d ee87 183d
000000a0: 477c f2bd 766c a9bd 1686 36be 8b6e 843d
000000b0: 72d0 b73b 3070 cd3c 9839 2f3d 66d7 213d
-0.012382651 -0.13734727 0.1090253 0.044926725 0.027945446 -0.06700277 -0.11115078 0.07208973
-0.02534173 -0.15489228 -0.050874986 0.111995205 0.014904354 0.07983448 0.080078445 0.12670386
-0.06941351 -0.047574703 -0.0028238143 0.04471685 -0.077474736 0.04264579 -0.03160236 0.036923908
0.07926376 -0.13424851 0.08040297 -0.07901928 -0.039229304 -0.0072920853 0.16167228 0.04360154
0.09243772 0.12469217 0.03877701 0.12194058 0.07392513 -0.082635626 0.074562006 0.037239008
-0.1184011 -0.082726404 -0.17824587 0.06466397 0.0056095654 0.02507791 0.042779535 0.03951206

net.4.weight f4 [48, 48]
00000000: 3f31 943d 56fd be3d 81f6 a33c 4849 363e
00000010: 9097 bfbd c11a 47bd a4de e1bb 4768 d23d
00000020: d64b 8e3d 8083 c83d 7133 c83c 88bb b8bd
00000030: 34ee bfbd 40f1 e0bd d2e5 db3d a256 183e
00000040: 4fc9 b1bc e967 343e 0718 ae3b cc15 99bc
00000050: b674 3cbd 4d7a 1b3e 1e54 c2bd a84e 91bd
00000060: f514 c73d d65e 14be 8fd1 7dbc dec7 bdbc
00000070: 592e 863d e008 bdbd 0b7b a93c 5e82 a93d
00000080: 946d 99bd 2be3 93bd d775 8dbd 31fd dd3d
00000090: a652 093d 7a05 403d 56ba 113e abd7 3c3d
000000a0: 9bb9 823d 9925 58bd fe45 45bd 956b f33c
000000b0: 3e7a 65bd 09d7 cbbd 2ead df3d 6b74 9dbb
000000c0: 18c6 053e 6c3b ae3d 8f00 27be c262 cf3c
000000d0: 5ecd 4c3c 93f6 563c e9d7 e2bd db25 abbd
000000e0: 0b7d ed3d 2b97 0a3e c9fb abbd d861 f0bc
000000f0: 45ee bdbd 2429 193d af4d cbbd 5558 df3c
00000100: 287b 153e 5813 3ebe ed14 59bd d046 313e
00000110: 07f4 d83d cbb0 b93d 43d5 f7bd acb7 1a3e
00000120: c934 21be 9696 9bbd d70f 48bc 957c 77b9
00000130: c37f 053e 27c1 00be 796d 2dbe 15ba 0d3e
00000140: ce3a 91bd 8e60 97bd 1743 c63c 93ba 51bc
00000150: 986b 96bd 4486 2abd 3d44 09be d40a 9cbc
00000160: c554 81bc 2cd3 2d3e a1ce 53bc d387 00bd
00000170: 30fe fd3d 8afd 8fbd ef04 f43c 5143 d43d
00000180: 3ef5 9d3d 69b5 c43d 105a ad3d f082 22bd
00000190: 13a9 2c3c 7c74 85bd bd6c 04be 9d04 b5bd
000001a0: 4ed7 e1bd 676d ad3d 1c0a fdbd e33e 053b
000001b0: de42 f03d 166b c93c aa12 083c 02ff 473d
000001c0: a0ce f1bd ee6c f63b 23a5 70bc ddf4 fdbd
000001d0: e316 fd3d 82e1 edbd f864 abbc 89aa 79bc
000001e0: 6531 2f3d 386a dcbd d64d 233e cad5 04be
000001f0: 62f3 ddbc 5ab6 abbb cebe b83d 3e5b c53d
00000200: 8f68 ae3b e998 163e b54d 92bd dc08 0e3d
00000210: d325 973c 429b 1ebd 388f 483c c924 96bd
00000220: 7cc8 e43c ebc0 1c3e e347 f63c 6bd4 bfbc
00000230: 2290 d23c d537 8c3d 5744 d4bd e2ed 8bbd
00000240: ab3d e93d 84e7 b53d 55dd 103e f2d8 e7bd
00000250: f0d0 bf3d 04ef 023e 3745 f53d d2dc e6bd
00000260: e91d debd b016 d53b 97b0 00be bc78 4ebc
00000270: cd63 bb3b 756f 43bc 7362 71bc e769 cf3d
00000280: 5cea 13be 899d 0dbd 8575 8a3c f174 18bd
00000290: 026c b43d cec6 0fbe c0bc 9bbd bbc2 d03d
000002a0: 18f7 e3bd cd62 43bd e4b3 b53d 17fb 93bd
000002b0: c544 e8bd a536 5dbd d00d 89bd 8646 03be
000002c0: b714 c3bd 7ce2 08be 46f8 d1bd f44f 6bbd
000002d0: e647 7f3d 8708 813d bfce c0bd 5b15 f53d
000002e0: d1df f23d 7770 1bbe ddd3 fd3d a07f 073c
000002f0: 2e67 703d d9aa ffbd 6f60 51bc 4224 c63d
00000300: b76d 8c3d 3e6b 0e3e 8525 9abd 31f0 dcbd
00000310: 2afa b03d 4eac e63d 446a 783d 6769 123e
00000320: 8d9d d4bc e377 913c 07d9 2d3d 640b 0bbe
00000330: bc28 113d 9f79 0bbe f141 c7bc 70e6 103e
00000340: 8f7f 31bc 353f 86bd eccd 92bd 977b 9a3d
00000350: 0cb6 c2bd 790d 09be 409e 003e b24e 43bd
00000360: 2537 c63d f032 6abb 4d42 2c3d 8607 973d
00000370: 8ec1 093e 3533 1abd cd17 b33d dd46 ddbb
00000380: 5d88 96bd cc03 febd eef5 873d e814 f9bc
00000390: bcdb eebd adb3 41bc bcbd 693a 9c61 a8bd
000003a0: 9607 a33d 9578 9fbb 6de8 d3bd 4dd0 9c3d
000003b0: 08e2 0bbe a397 09be b1b0 e83c aaa2 5f3d
000003c0: c187 8c3d 1b01 643d 1f0b 333e b096 75be
000003d0: 185b 423f 3571 e83d 0ce0 2dbd f587 0d3e
000003e0: bbd1 bb3d 3ce1 a5bb e933 333e 398c 353d
000003f0: b152 a5bd 6933 aebd dfd6 d23d efcd a83d
0.072359554 0.09325664 0.020015003 0.17801392 -0.0935508 -0.0486095 -0.006892996 0.102737956
0.06948058 0.09790707 0.024438592 -0.09020144 -0.093716055 -0.10983515 0.10737194 0.14876798
-0.021702437 0.17617764 0.005312923 -0.018687151 -0.04600974 0.15183373 -0.094887 -0.070950806
0.09720794 -0.14489302 -0.015491857 -0.023166593 0.06551809 -0.092302084 0.020688554 0.08276819
-0.074916035 -0.07221063 -0.06907242 0.10839308 0.033526085 0.046880223 0.14231238 0.046104115
0.06383058 -0.05277023 -0.048162453 0.029714385 -0.056024782 -0.09953124 0.10921703 -0.004805138
0.13063848 0.085074276 -0.16308807 0.025315646 0.012500135 0.013120311 -0.11076338 -0.0835683
0.11596116 0.13534229 -0.083976336 -0.02934353 -0.09273962 0.03739275 -0.09926926 0.0272638
0.14597762 -0.18562067 -0.052998472 0.17312169 0.105934195 0.09066924 -0.12101223 0.15109128
-0.15742792 -0.07597081 -0.012210808 -0.00023602166 0.13037018 -0.12573682 -0.16936292 0.13840516
-0.07091294 -0.07391463 0.024201913 -0.01280083 -0.07344741 -0.041631952 -0.13404937 -0.019048132
-0.015787492 0.16975087 -0.012927682 -0.031379532 0.12401998 -0.070307806 0.029787509 0.10364402
0.07712792 0.09604914 0.08464444 -0.039675653 0.010538357 -0.06516358 -0.12932105 -0.088387705
-0.11027394 0.084681325 -0.12355444 0.0020331673 0.11731504 0.024587195 0.008305231 0.04882718
-0.11806989 0.0075203096 -0.014687809 -0.124002196 0.12357881 -0.11615278 -0.02092217 -0.015238413
0.042771716 -0.10762447 0.15947661 -0.12972179 -0.027093593 -0.005240244 0.09020768 0.09636544
0.005322523 0.14706768 -0.07143728 0.034676418 0.018450653 -0.038722284 0.012241177 -0.07331235
0.02792763 0.15307967 0.030063575 -0.023416718 0.025703494 0.068465866 -0.10364597 -0.06832482
0.11388715 0.08882049 0.14146931 -0.11320676 0.093660235 0.1278649 0.11976092 -0.11272587
-0.10845549 0.0065029487 -0.12567364 -0.0126020275 0.0057186843 -0.011928429 -0.014732945 0.10127621
-0.1444487 -0.034574065 0.01690174 -0.0372209 0.08809663 -0.14040682 -0.076043606 0.10193392
-0.11131114 -0.047701646 0.08872202 -0.07225626 -0.11341242 -0.05400719 -0.06692088 -0.12819871
-0.095254354 -0.13367647 -0.102524325 -0.057449296 0.062324427 0.063004546 -0.09414434 0.11966964
0.11859096 -0.1517962 0.12393925 0.008270174 0.05869215 -0.124837585 -0.012779339 0.096748844
0.06856864 0.13908097 -0.075266875 -0.107880004 0.08641465 0.11263333 0.060648218 0.1429802
-0.025954032 0.017757362 0.0424433 -0.13578564 0.035439238 -0.13620614 -0.024323436 0.14150405
-0.010833635 -0.065550245 -0.07168183 0.07543104 -0.09507379 -0.13384046 0.12560368 -0.04768247
0.09678487 -0.0035735928 0.042055417 0.07374482 0.13452742 -0.03764649 0.08744774 -0.0067528323
-0.07350228 -0.12403068 0.06638704 -0.030405477 -0.11663005 -0.011822623 0.0008916517 -0.082217425
0.07960431 -0.0048666694 -0.10347066 0.07656918 -0.13660443 -0.13436751 0.028404566 0.054598488
0.068618305 0.055665117 0.17484711 -0.23983264 0.7592025 0.113497175 -0.042449996 0.13821395
0.09170862 -0.0050622504 0.17500271 0.04432318 -0.08072413 -0.085058995 0.1029489 0.08242404

net.4.bias f4 [48]
00000000: bf7b 013e e153 4ebc a3b2 023e cb45 e9bc
00000010: 8e68 97bb c611 9abc f30b 013e 92d0 eb3d
00000020: 48b4 823d 32fa b53d 6a78 563d d60f ac3d
00000030: 80f7 19be 143d a33d ef90 6c3d c6f8 eabd
00000040: 904a ccbc 1890 8bbd d800 c2bd cbab 05be
00000050: 92d0 03be 275f 0cbe cb63 9a3d 2db7 e33d
00000060: b83d ae3c 0c46 fa3b 227b c43c 131c 51bd
00000070: ed6d 87bd 97d4 663d dc5f 32bd a829 123d
00000080: 882c 76bd 5a01 a93d 2e7d b13d 3a63 753d
00000090: cce1 f0bd 6aef c3bd b056 ebbd 3b55 09bd
000000a0: 1d55 17be d0ae 823d 4acb bdbd 7ede fbbd
000000b0: dd14 0bbe 44be febd bc86 b03d 84cb 5fbd
0.12644862 -0.0125932405 0.12763457 -0.028475663 -0.004620618 -0.018807303 0.12602215 0.11514391
0.06382042 0.088856116 0.05236093 0.08401458 -0.1503582 0.07970634 0.057755407 -0.11473231
-0.024937898 -0.06814593 -0.09472817 -0.13053815 -0.12872532 -0.13708173 0.07538565 0.111189224
0.021269664 0.007637745 0.023984496 -0.051052164 -0.066127636 0.056355085 -0.04354845 0.035684258
-0.060101062 0.08252211 0.08666454 0.059909083 -0.11761817 -0.09567149 -0.11491144 -0.033528548
-0.14778562 0.06380999 -0.0926729 -0.122982964 -0.13582177 -0.12438634 0.086194485 -0.054637447

net.6.weight f4 [1, 48]
00000000: 6459 e9bd bea4 ec3d 3b55 183d 20b8 2bbd
00000010: dc1a b53d a0b6 e0bd b064 d23d 4dde f53d
00000020: cfeb a3bd 3d52 49bd 3615 9cbb 1493 0abc
00000030: a0df a33d daef ab3d 8994 f0bb cb8e c5bd
00000040: 6b27 d8bd 7f61 923b 813d a0bd c820 503e
00000050: 4bf5 d93c 837b f7bd d959 9d3d ef63 003e
00000060: 1293 e1bd 9095 c03d 4297 9abd 5227 e33d
00000070: 0760 46bb fd9b c03d c354 febd 91d6 d13b
00000080: 6d75 ca3d 32e0 333b ac96 1fbb 00a3 913d
00000090: 7cb6 3a3d 4940 893c 6377 003c aaa3 ffbc
000000a0: d36c bcbd e973 96bd 0186 02bf 8e3d 833e
000000b0: 3a85 dbbd cafc 803c 147d 94bd 4087 04be
-0.11394003 0.115548596 0.037190657 -0.041923642 0.08843014 -0.10972333 0.10273111 0.12005291
-0.08003961 -0.049150694 -0.0047632707 -0.008457918 0.080016375 0.083953574 -0.0073419255 -0.09646376
-0.105543934 0.004467189 -0.07824231 0.20325005 0.026606223 -0.12084105 0.07683153 0.12538122
-0.110143796 0.09403527 -0.075483814 0.11091484 -0.003026964 0.094047524 -0.12418511 0.006403752
0.098856784 0.0027446863 -0.0024351282 0.07111168 0.045584187 0.016754286 0.007840964 -0.03120597
-0.09200444 -0.07346327 -0.50985724 0.256329 -0.1071877 0.01574554 -0.07250419 -0.12942219
