Results/Archive_NNfile/pretrain_phy_10.pt (torch, 26663 bytes, 7 tensors)

net.0.weight f4 [48, 21]
-0.12022101 -0.15451773 0.11758046 -0.07852582 -0.1066065 0.13330255 0.1357496 -0.15074018
-0.13776584 0.17742771 -0.18685113 -0.054758713 0.22309703 -0.08980304 0.11316349 0.037344515
0.02626721 -0.0036064272 0.052777525 -0.19053781 0.11873335 -0.07728336 0.20212126 -0.11851947
-0.022291003 -0.12602028 0.08024949 0.10814595 -0.016282251 0.11967018 -0.049726374 -0.1864929
0.1630509 -0.06504248 -0.07512861 -0.07618585 -0.11353266 -0.009495771 -0.11768961 0.06333692
0.02275407 0.09168267 -0.19057192 0.05061795 0.085770324 -0.22579695 0.096273504 -0.07558353
-0.16376752 -0.1543979 -0.20846605 -0.0058758617 0.023782386 0.11744121 0.17728767 0.0871262
-0.2050583 0.16586842 -0.0029114094 0.12875101 0.19410083 -0.039387837 0.03594069 0.22152916
0.07592423 0.06927888 -0.13703689 0.027414426 -0.060425263 -0.1246222 -0.1809881 0.16033435
-0.11614413 0.06324321 0.16464898 -0.11362719 -0.060226258 -0.18694755 0.012735885 0.12768245
-0.035397884 -0.19287397 0.023365522 -0.05625278 0.12547567 0.07806612 -0.061581213 -0.08732024
-0.037056725 0.1778485 0.1274843 0.03135126 0.16033185 0.17295751 -0.10146449 -0.1190781
-0.060607534 -0.022672998 -0.16458532 0.10105384 -0.18283677 -0.21028511 -0.18164523 -0.23351344
-0.04013427 -0.086486906 0.1295929 0.07248443 -0.12644257 -0.14770411 0.056351405 0.12996162
-0.1521053 -0.019184928 0.011778664 0.17049944 0.19598092 -0.18337907 -0.036998548 -0.24381335
-0.06232933 0.22983266 -0.016221866 0.14177735 -0.11868389 0.05801914 0.20750865 0.2021853
-0.19236389 0.122651435 0.017744975 -0.047518607 -0.10744139 -0.10685983 0.088550024 0.08580305
0.053581323 -0.1588408 0.0072972067 -0.03739578 0.062950656 -0.059914052 0.12057891 -0.18236084
-0.11560746 -0.090357594 0.17622906 0.01204924 0.023310443 0.23854317 0.1998605 0.07339625
0.24381721 0.0042011994 0.17203362 0.021569258 0.1395964 0.07393304 -0.063759685 -0.09084903
-0.114400916 -0.1255904 -0.22165556 -0.034870796 -0.009602742 -0.2197905 -0.15792516 -0.21672781
-0.24448057 0.12933865 -0.07418974 0.08903563 -0.16627927 0.06237541 0.05679096 -0.07335268
-0.012057387 -0.07149271 0.16356806 0.07760646 -0.075079314 -0.040785328 0.099857084 0.20688784
-0.15438174 0.14338791 -0.20347391 0.10454033 -0.16654685 0.09791719 0.12434751 0.18591303
0.041451976 0.15230729 0.10731834 -0.1271748 0.1687013 -0.12938534 -0.15217224 0.18736494
-0.134627 -0.07933657 0.066362366 0.09068936 0.08503511 0.046886098 0.0019044551 0.026478032
-0.1591931 -0.031506777 -0.16114399 0.19089256 0.07104858 0.033715155 -0.14004752 -0.071262024
-0.002473007 -0.102903344 0.096069895 -0.014026026 0.09694686 0.12788972 0.024000052 0.08371445
0.19412503 0.07636624 0.21516143 -0.16084456 -0.01449109 -0.07069352 0.21172728 0.18564913
0.017437125 0.096617505 0.16533692 -0.08012246 0.07306123 0.15730797 -0.14000644 -0.12834208
-0.16156012 0.12234006 -0.01931286 -0.06904865 0.13913018 -0.17804465 -0.107911356 -0.058456227
0.17730722 -0.21148123 0.20113063 -0.18409997 -0.007950682 0.030635796 0.029153481 0.049760524
00000000: 6f36 f6bd e539 1ebe 06ce f03d 25d2 a0bd
00000010: 8254 dabd 7780 083e f101 0b3e a25b 1abe
00000020: 7d12 0dbe 9caf 353e e755 3fbe ac4a 60bd
00000030: 8c73 643e a8ea b7bd 43c2 e73d 90f6 183d
00000040: 552e d73c cf59 6cbb 3f2d 583d 581c 43be
00000050: 782a f33d bd46 9ebd e0f8 4e3e 56ba f2bd
00000060: 9f9b b6bc 760b 01be d859 a43d a07b dd3d
00000070: 5b62 85bc a415 f53d e2ad 4bbd fff7 3ebe
00000080: d1f6 263e fe34 85bd 07dd 99bd 5407 9cbd
00000090: d083 e8bd 2694 1bbc 4007 f1bd cab6 813d
000000a0: be66 ba3c 20c4 bb3d 4925 43be c454 4f3d
000000b0: 5aa8 af3d 5137 67be 0b2b c53d 8acb 9abd
000000c0: acb2 27be 7c1a 1ebe 2078 55be 4d8a c0bb
000000d0: 47d3 c23c 0485 f03d e68a 353e 396f b23d
000000e0: cefa 51be 69d9 293e 58cd 3ebb 4ed7 033e
000000f0: 5ec2 463e 2455 21bd 8c36 133d 8ad8 623e
00000100: 2a7e 9b3d 16e2 8d3d 6653 0cbe 3894 e03c
00000110: 7b80 77bd ed39 ffbd f254 39be b02e 243e
00000120: f9dc edbd a885 813d be99 283e 5fb5 e8bd
00000130: cfaf 76bd 2e6f 3fbe 2caa 503c 30bf 023e
00000140: 5ffd 10bd c180 45be 0d69 bf3c 5169 66bd
00000150: b27c 003e 21e1 9f3d 953c 7cbd f4d4 b2bd
00000160: cbc8 17bd eb1d 363e 3f8b 023e 2e6a 003d
00000170: 082e 243e c61b 313e 9dcc cfbd 38df f3bd
00000180: 9b3f 78bd b9bc b9bc 0e89 28be 51f5 ce3d
00000190: 9039 3bbe fb54 57be 3501 3abe 261e 6fbe
000001a0: d563 24bd 0c20 b1bd 00b4 043e b872 943d
000001b0: 297a 01be bf3f 17be bbd0 663d a914 053e
000001c0: 7ec1 1bbe b629 9dbc 4cfb 403c 6897 2e3e
000001d0: 39af 483e b9c7 3bbe ca8b 17bd 35aa 79be
000001e0: 0a4d 7fbd 4159 6b3e b8e3 84bc 152e 113e
000001f0: 8a10 f3bd 7aa5 6d3d 267d 543e aa09 4f3e
00000200: 0afb 44be ad30 fb3d e95d 913c dfa2 42bd
00000210: 3b0a dcbd 54d9 dabd b759 b53d 82b9 af3d
00000220: 1778 5b3d 2aa7 22be 681d ef3b 512c 19bd
00000230: 46ec 803d 7068 75bd 13f2 f63d cdbc 3abe
00000240: 9bc3 ecbd 670d b9bd 6475 343e 2d6a 453c
00000250: 8bf5 be3c a944 743e 3ba8 4c3e c650 963d
00000260: 38ab 793e 37aa 893b 9529 303e 03b2 b03c
00000270: 5cf2 0e3e 356a 973d 7094 82bd 0e0f babd
00000280: 074b eabd c59a 00be adf9 62be aed4 0ebd
00000290: d254 1dbc c310 61be 22b7 21be e5ed 5dbe
000002a0: 1d59 7abe 5a71 043e caf0 97bd 5058 b63d
000002b0: 1d45 2abe 5c7d 7f3d a39d 683d ee39 96bd
000002c0: 598c 45bc c56a 92bd 637e 273e 23f0 9e3d
000002d0: 2fc3 99bd 840e 27bd df81 cc3d 68da 533e
000002e0: 3f16 1ebe 48d4 123e 775b 50be 3e19 d63d
000002f0: 428b 2abe cf88 c83d e8a9 fe3d fc5f 3e3e
00000300: 8cc9 293d 71f6 1b3e b8c9 db3d 1c3a 02be
00000310: 09c0 2c3e 977d 04be 0ad3 1bbe 98dc 3f3e
00000320: a9db 09be 367b a2bd fee8 873d 58bb b93d
00000330: e326 ae3d a30b 403d e99e f93a 75e8 d83c
00000340: 8403 23be 400d 01bd ee02 25be 5779 433e
00000350: eb81 913d e718 0a3d 9e68 0fbe d3f1 91bd
00000360: 2c12 22bb fdbe d2bd 4bc0 c43d 6bcd 65bc
00000370: 138c c63d 86f5 023e c29b c43c 7b72 ab3d
00000380: b6c8 463e e765 9c3d 4753 5c3e 70b4 24be
00000390: 096c 6dbc c4c7 90bd 09cf 583e ce1a 3e3e
000003a0: 4dd8 8e3c 66df c53d 154e 293e 3f17 a4bd
000003b0: 20a1 953d 5715 213e d95d 0fbe 1b6c 03be
000003c0: 0470 25be 6d8d fa3d 0136 9ebc 6169 8dbd
000003d0: 2478 0e3e 5651 36be a100 ddbd cc6f 6fbd
000003e0: 0690 353e 898e 58be 30f5 4d3e b484 3cbe
000003f0: 9443 02bc ecf7 fa3c 48d3 ee3c b1d1 4b3d

net.0.bias f4 [48]
0.042005155 -0.13533966 0.06472031 0.1527131 0.16371922 0.16276358 0.0906145 0.13597614
0.20014502 0.010502987 0.06877602 -0.18003453 0.073524475 -0.23120059 -0.12614554 0.0879064
0.16240515 -0.12519087 -0.0098037645 0.10534381 -0.075872 -0.032868136 -0.1904084 0.007980569
-0.21496914 0.031072909 0.06482888 -0.00550797 0.07654087 0.08577983 0.16504188 0.12823454
0.105847895 -0.06749087 0.06678068 0.1172015 -0.2396417 -0.078748785 0.07650075 -0.13499147
-0.07637315 0.13161965 0.10798171 0.017314518 0.004869373 -0.11477736 0.15694551 0.032904703
00000000: 990d 2c3d 7b96 0abe 158c 843d d360 1c3e
00000010: 03a6 273e 7fab 263e 1894 b93d 543d 0b3e
00000020: d1f2 4c3e b814 2c3c 71da 8c3d f95a 38be
00000030: 0094 963d d9bf 6cbe 4c2c 01be 4508 b43d
00000040: 894d 263e 0932 00be f89f 20bc 7fbe d73d
00000050: c762 9bbd bda0 06bd 6bfa 42be efc0 023c
00000060: df20 5cbe 9d8c fe3c 01c5 843d 347c b4bb
00000070: 76c1 9c3d 56ad af3d bd00 293e ea4f 033e
00000080: c8c6 d83d a738 8abd 4fc4 883d 5707 f03d
00000090: a264 75be 0b47 a1bd 6dac 9c3d 343b 0abe
000000a0: 8769 9cbd 4dc7 063e 8425 dd3d 2dd7 8d3c
000000b0: 438f 9f3b 6410 ebbd 53b6 203e 15c7 063d

net.2.weight f4 [48, 48]
-0.12509838 -0.10081453 0.104842946 -0.114365794 -0.0040516225 -0.09784236 0.036026575 0.09253506
-0.07900959 0.039570585 0.12280637 -0.08705418 -0.29201382 -0.0081910025 0.034954604 0.06917213
-0.024404453 -0.02210632 -0.2159722 0.027341029 0.0061497544 -0.1046708 0.1820759 0.06615144
0.07053109 0.105410814 0.09093821 0.0973965 -0.017123772 0.058404736 -0.010230607 -0.06490987
-0.06609864 0.09851804 0.093688734 -0.23465101 0.04220621 -0.112329535 0.03517723 -0.09923791
-0.033943858 0.09602284 0.09739829 -0.113216005 0.11708081 -0.13033971 0.058194928 0.029994873
0.15119763 0.09224522 0.08699164 -0.025593607 -0.04206415 0.07150246 0.08177178 -0.20282641
-0.042000458 -0.0966568 -0.059705235 -0.14173508 -0.11433941 0.22410154 0.07506222 0.06859088
0.09146725 0.096032225 -0.0037574812 0.12834994 -0.09625062 0.12942556 0.019867199 0.041817445
0.06612798 0.04169375 0.011603933 -0.10327955 -0.089253575 -0.08768194 0.014958509 -0.10608362
0.07215944 -0.0017578368 0.08073877 -0.056452297 0.15705442 0.02357365 0.1104525 0.030197985
-0.09785303 0.027710473 -0.0005110574 -0.07044363 0.017382082 0.07376848 0.08157156 0.0064771506
0.05946829 0.13897502 -0.0067121554 -0.09883676 -0.19867301 0.18112698 -0.0051233904 0.001957414
0.13504346 -0.009436846 0.051817525 0.0700805 0.3794626 0.02557383 0.066743694 0.040590785
0.065274805 -0.11368331 -0.022047915 0.106084205 -0.05004868 -0.06774093 -0.090365626 0.048141405
0.044175662 -0.0094563225 0.11422308 -0.14297606 0.08938094 0.22420312 0.0721536 0.12516947
0.0011536853 -0.16016498 -0.07926942 0.09800637 -0.07002037 0.0211369 0.027126992 -0.015805246
-0.011368498 -0.07444646 -0.015368531 -0.055022772 -0.11128663 -0.13113652 0.121237785 0.015720785
0.116344176 0.019088155 0.11754788 -0.12633197 0.013160942 0.12283542 -0.01690316 -0.013441995
0.20320499 -0.22593383 0.057725187 0.094755374 0.011607938 0.026443519 -0.13498749 -0.020506227
0.054118346 0.0057612034 -0.10592218 -0.14629096 0.11142702 0.1005465 -0.06933283 -0.20670114
-0.07585643 -0.09926818 0.19572729 -0.33738774 -0.118813545 0.28620175 -0.052023258 -0.0063003744
0.038948055 0.14759405 -0.16336042 0.2757042 0.06103267 -0.10932114 0.15519819 -0.051796895
0.029743373 -0.17667988 -0.06900032 -0.4431874 -0.097245574 -0.013173101 -0.079292566 -0.004970329
-0.039829053 0.12742476 -0.1251029 0.020786876 0.043253038 -0.030539934 -0.14498562 -0.058697753
0.093297 -0.02705786 -0.027357351 0.042720944 0.5044163 0.09444435 -0.015726406 0.088210836
-0.1501562 0.008202404 0.05800821 0.020378266 -0.115230426 0.12601727 -0.06396172 -0.019915633
0.117289305 -0.008762164 0.006417924 0.099285126 -0.08160443 0.0153630385 -0.14839934 0.08184021
-0.14268859 0.12270827 -0.1100128 -0.16835208 -0.030628394 0.090984456 0.14219868 0.03595185
-0.012962084 -0.09616179 -0.023348508 0.029446177 0.0077997735 0.05319175 0.15265605 -0.05257528
0.065075815 0.10703044 -0.005111929 -0.057976995 0.08088755 0.009148012 -0.12325233 0.059411235
-0.002519857 -0.10473409 0.04544294 0.061304037 -0.08360025 -0.13699186 0.051504698 0.11928945
00000000: ca19 00be d977 cebd e6b7 d63d 9d38 eabd
00000010: 79c3 84bb 9361 c8bd 9a90 133d 0683 bd3d
00000020: c8cf a1bd c414 223d e881 fb3d 7649 b2bd
00000030: d682 95be 8e33 06bc 8f2c 0f3d 1eaa 8d3d
00000040: d9eb c7bc 5018 b5bc d127 5dbe 4bfa df3c
00000050: e183 c93b a55d d6bd 1b72 3a3e 687a 873d
00000060: 9b72 903d a0e1 d73d d03d ba3d d177 c73d
00000070: 2747 8cbc ce39 6f3d 479e 27bc 77ef 84bd
00000080: b95e 87bd d3c3 c93d e1df bf3d 5b48 70be
00000090: 6be0 2c3d 070d e6bd 0016 103d 3f3d cbbd
000000a0: b708 0bbd 9fa7 c43d c178 c73d cbdd e7bd
000000b0: 10c8 ef3d c677 05be ce5d 6e3d cfb7 f53c
000000c0: 8dd3 1a3e 10eb bc3d ac28 b23d afa9 d1bc
000000d0: 754b 2cbd e26f 923d f777 a73d bab1 4fbe
000000e0: ac08 2cbd 00f4 c5bd 7a8d 74bd 0023 11be
000000f0: c82a eabd e07a 653e 39ba 993d 6079 8c3d
00000100: 2e53 bb3d 8bac c43d 1340 76bb 2b6e 033e
00000110: 0c1f c5bd 2288 043e 89c0 a23c c548 2b3d
00000120: 1b6e 873d 11c7 2a3d 6c1e 3e3c 3b84 d3bd
00000130: 94ca b6bd 9792 b3bd 8914 753c 5e42 d9bd
00000140: 54c8 933d 3767 e6ba 5e5a a53d 863a 67bd
00000150: e0d2 203e 871d c13c ec34 e23d c461 f73c
00000160: 2b67 c8bd 1301 e33c 7bf8 05ba c044 90bd
00000170: de64 8e3c ee13 973d fd0e a73d 473e d43b
00000180: 0695 733d 784f 0e3e a4f1 dbbb ed6a cabd
00000190: f070 4bbe 5a79 393e 1de2 a7bb f547 003b
000001a0: d548 0a3e 009d 1abc 9d3e 543d 5d86 8f3d
000001b0: ec48 c23e 3580 d13c ebb0 883d 8642 263d
000001c0: ccae 853d ccd2 e8bd d49d b4bc ad42 d93d
000001d0: d8ff 4cbd c2bb 8abd 9d11 b9bd ec2f 453d
000001e0: 8af1 343d b1ee 1abc caed e93d 5168 12be
000001f0: 5b0d b73d 8195 653e 44c5 933d 6d2c 003e
00000200: 4137 973a 4a02 24be 0158 a2bd 90b7 c83d
00000210: d766 8fbd 4b27 ad3c 6d39 de3c 017a 81bc
00000220: f042 3abc 6377 98bd 4bcc 7bbc 8f5f 61bd
00000230: 3fea e3bd a748 06be 844b f83d e0c8 803c
00000240: db45 ee3d c35e 9c3c f1bc f03d 2b5d 01be
00000250: fea0 573c 2391 fb3d 7f78 8abc d03b 5cbc
00000260: f814 503e 335b 67be 3f71 6c3d 1b0f c23d
00000270: 392f 3e3c 14a0 d83c 293a 0abe adfc a7bc
00000280: 33ab 5d3d 7ac8 bc3b baed d8bd 4ccd 15be
00000290: d933 e43d 53eb cd3d 5ffe 8dbd 77a9 53be
000002a0: 9e5a 9bbd 1e4d cbbd bc6c 483e 16be acbe
000002b0: 8454 f3bd 0989 923e 5716 55bd 5f73 cebb
000002c0: ff87 1f3d e522 173e f447 27be 1a29 8d3e
000002d0: 65fd 793d c3e3 dfbd 46ec 1e3e fb28 54bd
000002e0: 60a8 f33c 92eb 34be 0a50 8dbd 75e9 e2be
000002f0: b028 c7bd fdd3 57bc 2464 a2bd 24de a2bb
00000300: ca23 23bd a37b 023e fa1a 00be 3d49 aa3c
00000310: 192a 313d e22e fabc 1c77 14be 0e6d 70bd
00000320: 7f12 bf3d 72a8 ddbc 861c e0bc 28fc 2e3d
00000330: 6d21 013f 0a6c c13d aad4 80bc e2a7 b43d
00000340: 8cc2 19be 6063 063c 049a 6d3d 52f0 a63c
00000350: eefd ebbd ac0a 013e 5dfe 82bd 1c26 a3bc
00000360: 6035 f03d 2e8f 0fbc 734d d23b 0056 cb3d
00000370: 3920 a7bd 41b5 7b3c fff5 17be d79b a73d
00000380: f51c 12be 794e fb3d 644e e1bd 7d64 2cbe
00000390: 66e8 fabc 0f56 ba3d 889c 113e 3f42 133d
000003a0: ec5e 54bc 79f0 c4bd 5f45 bfbc 1c39 f13c
000003b0: 3e95 ff3b 98df 593d de51 1c3e 2d59 57bd
000003c0: 7846 853d c632 db3d f881 a7bb 4979 6dbd
000003d0: 5fa8 a53d 8be1 153c b86b fcbd 3259 733d
000003e0: 2f24 25bb d47e d6bd 6022 3a3d f119 7b3d
000003f0: 9c36 abbd 9847 0cbe 97f6 523d 074e f43d

net.2.bias f4 [48]
-0.011870656 -0.13494904 0.108477116 0.04810427 0.02806451 -0.06700277 -0.11115078 0.07208973
-0.025978638 -0.1547657 -0.051512305 0.11224015 0.01583682 0.080193155 0.079564504 0.12676568
-0.06891608 -0.048176423 -0.0025759416 0.0450592 -0.0768182 0.045429025 -0.03160236 0.037877575
0.0792338 -0.13381395 0.08084814 -0.07901928 -0.039229304 -0.0072920853 0.16179118 0.04360154
0.09290637 0.12499759 0.03877701 0.12166031 0.07393482 -0.082635626 0.07418505 0.037239008
-0.11722575 -0.082294114 -0.17793551 0.064892575 0.0062993946 0.024521746 0.04268902 0.04036368
00000000: 247d 42bc 1530 0abe 4029 de3d fc08 453d
00000010: 8be7 e53c c038 89bd 05a3 e3bd c8a3 933d
00000020: 27d1 d4bc e67a 1ebe 91fe 52bd 2ade e53d
00000030: 38bc 813c 4f3c a43d b7f2 a23d ddce 013e
00000040: e023 8dbd a454 45bd 21d1 28bb ff8f 383d
00000050: dc52 9dbd c913 3a3d 7a71 01bd 8425 1b3d
00000060: 5545 a23d 8606 09be b693 a53d dcd4 a1bd
00000070: e8ae 20bd 72f2 eebb 96ac 253e 8797 323d
00000080: b245 be3d bdfe ff3d a4d4 1e3d 0a29 f93d
00000090: 246b 973d de3c a9bd 55ee 973d ee87 183d
000000a0: 0e14 f0bd d189 a8bd ba34 36be 66e6 843d
000000b0: 276b ce3b d4e1 c83c afda 2e3d 6354 253d

net.4.weight f4 [48, 48]
0.072064325 0.09117684 0.019752309 0.18389957 -0.09348563 -0.0486095 -0.006892996 0.102737956
0.0696597 0.09775903 0.024336481 -0.09055986 -0.09424464 -0.110111736 0.10711575 0.1492874
-0.0220378 0.1758487 0.0062320544 -0.018883353 -0.046405077 0.15159597 -0.094887 -0.071261086
0.09710293 -0.14514041 -0.015813766 -0.023166593 0.06551809 -0.092302084 0.020541443 0.08276819
-0.075308606 -0.07238289 -0.06907242 0.107995845 0.03361074 0.046880223 0.1424822 0.046104115
0.061877597 -0.05319656 -0.048819367 0.029143024 -0.056485992 -0.09973908 0.10930503 -0.004697641
0.13133568 0.087193996 -0.16200922 0.025315646 0.01439391 0.013120311 -0.11076338 -0.0835683
0.11608619 0.13564272 -0.083040446 -0.028616954 -0.092002705 0.037879165 -0.098517105 0.029422047
0.14671543 -0.18448186 -0.052265465 0.17317541 0.10653665 0.09110598 -0.12101223 0.15121067
-0.15707326 -0.07552783 -0.011901423 -0.00023602166 0.13037018 -0.12573682 -0.16903834 0.13840516
-0.07019656 -0.073585846 0.024201913 -0.011978828 -0.07568967 -0.041631952 -0.1337119 -0.019048132
-0.013832862 0.17031266 -0.0117397895 -0.030737733 0.124290876 -0.06952401 0.029748429 0.10605282
0.07751949 0.09819526 0.085007355 -0.04551485 0.010562082 -0.06516358 -0.12932105 -0.088387705
-0.11035614 0.08491555 -0.12334661 0.0024929612 0.11793452 0.024963455 0.008669628 0.048373017
-0.11763861 0.007957314 -0.015508369 -0.12371078 0.124066934 -0.11581543 -0.02092217 -0.0148270875
0.042974405 -0.10728337 0.15990695 -0.12972179 -0.027093593 -0.005240244 0.09045045 0.09636544
0.0058191787 0.14734386 -0.07143728 0.0351791 0.018440397 -0.038722284 0.012157272 -0.07331235
0.029912962 0.15356666 0.030813098 -0.022744799 0.026272738 0.068778396 -0.10363934 -0.06834343
0.11388715 0.08882049 0.14146931 -0.11320676 0.093660235 0.1278649 0.11976092 -0.11272587
-0.10845549 0.0065029487 -0.12567364 -0.0126020275 0.0057186843 -0.011928429 -0.014732945 0.10127621
-0.1444487 -0.034574065 0.01690174 -0.0372209 0.08809663 -0.14040682 -0.076043606 0.10193392
-0.11131114 -0.047701646 0.08872202 -0.07225626 -0.11341242 -0.05400719 -0.06692088 -0.12819871
-0.095254354 -0.13367647 -0.102524325 -0.057449296 0.062324427 0.063004546 -0.09414434 0.11966964
0.11859096 -0.1517962 0.12393925 0.008270174 0.05869215 -0.124837585 -0.012779339 0.096748844
0.06856864 0.13908097 -0.075266875 -0.107880004 0.08641465 0.11263333 0.060648218 0.1429802
-0.025954032 0.017757362 0.0424433 -0.13578564 0.035439238 -0.13620614 -0.024323436 0.14150405
-0.010833635 -0.065550245 -0.07168183 0.07543104 -0.09507379 -0.13384046 0.12560368 -0.04768247
0.09678487 -0.0035735928 0.042055417 0.07374482 0.13452742 -0.03764649 0.08744774 -0.0067528323
-0.07350228 -0.12403068 0.06638704 -0.030405477 -0.11663005 -0.011822623 0.0008916517 -0.082217425
0.07960431 -0.0048666694 -0.10347066 0.07656918 -0.13660443 -0.13436751 0.028404566 0.054598488
0.06824184 0.053762145 0.17447758 -0.2361572 0.75923824 0.113497175 -0.042449996 0.13821395
0.091796584 -0.004974472 0.17480363 0.043951944 -0.08140376 -0.085494325 0.10261775 0.08245721
00000000: 7696 933d ecba ba3d 98cf a13c 2b50 3c3e
00000010: 6575 bfbd c11a 47bd a4de e1bb 4768 d23d
00000020: bfa9 8e3d e335 c83d 4d5d c73c 7377 b9bd
00000030: 5503 c1bd 4382 e1bd 815f db3d ccde 183e
00000040: 9e88 b4bc ae11 343e 4336 cc3b 43b1 9abc
00000050: 4013 3ebd f93b 1b3e 1e54 c2bd 55f1 91bd
00000060: e7dd c63d b09f 14be df8b 81bc dec7 bdbc
00000070: 592e 863d e008 bdbd 8746 a83c 5e82 a93d
00000080: 663b 9abd 7b3d 94bd d775 8dbd ed2c dd3d
00000090: 6aab 093d 7a05 403d dbe6 113e abd7 3c3d
000000a0: 5d73 7d3d a3e4 59bd d1f6 47bd 5abd ee3c
000000b0: db5d 67bd 0144 ccbd 51db df3d abee 99bb
000000c0: dc7c 063e c492 b23d bfe5 25be c262 cf3c
000000d0: 6fd4 6b3c 93f6 563c e9d7 e2bd db25 abbd
000000e0: 99be ed3d ede5 0a3e 1c11 aabd 1a6e eabc
000000f0: ea6b bcbd 2f27 1b3d 56c3 c9bd 8106 f13c
00000100: 923c 163e d0e8 3cbe 5014 56bd e554 313e
00000110: e32f da3d c695 ba3d 43d5 f7bd f8d6 1a3e
00000120: d0d7 20be 56ae 9abd 30fe 42bc 957c 77b9
00000130: c37f 053e 27c1 00be 6318 2dbe 15ba 0d3e
00000140: 37c3 8fbd 2db4 96bd 1743 c63c d942 44bc
00000150: 3003 9bbd 4486 2abd c6eb 08be d40a 9cbc
00000160: 3aa3 62bc 7166 2e3e 3f58 40bc b3cd fbbc
00000170: 378c fe3d 9b62 8ebd fab2 f33c 3932 d93d
00000180: 8ac2 9e3d 991a c93d 5618 ae3d c86d 3abd
00000190: 950c 2d3c 7c74 85bd bd6c 04be 9d04 b5bd
000001a0: 6602 e2bd 34e8 ad3d 269d fcbd f360 233b
000001b0: a787 f13d 2980 cc3c 0e0b 0e3c c922 463d
000001c0: 83ec f0bd 655f 023c d016 7ebc 145c fdbd
000001d0: ce16 fe3d a430 edbd f864 abbc 50ed 72bc
000001e0: ee05 303d 62b7 dbbd a6be 233e cad5 04be
000001f0: 62f3 ddbc 5ab6 abbb 163e b93d 3e5b c53d
00000200: cfae be3b 4fe1 163e b54d 92bd f617 103d
00000210: 5110 973c 429b 1ebd 4b2f 473c c924 96bd
00000220: 070c f53c 9440 1d3e c06b fc3c 4d53 babc
00000230: ed39 d73c b0db 8c3d dd40 d4bd a4f7 8bbd
00000240: ab3d e93d 84e7 b53d 55dd 103e f2d8 e7bd
00000250: f0d0 bf3d 04ef 023e 3745 f53d d2dc e6bd
00000260: e91d debd b016 d53b 97b0 00be bc78 4ebc
00000270: cd63 bb3b 756f 43bc 7362 71bc e769 cf3d
00000280: 5cea 13be 899d 0dbd 8575 8a3c f174 18bd
00000290: 026c b43d cec6 0fbe c0bc 9bbd bbc2 d03d
000002a0: 18f7 e3bd cd62 43bd e4b3 b53d 17fb 93bd
000002b0: c544 e8bd a536 5dbd d00d 89bd 8646 03be
000002c0: b714 c3bd 7ce2 08be 46f8 d1bd f44f 6bbd
000002d0: e647 7f3d 8708 813d bfce c0bd 5b15 f53d
000002e0: d1df f23d 7770 1bbe ddd3 fd3d a07f 073c
000002f0: 2e67 703d d9aa ffbd 6f60 51bc 4224 c63d
00000300: b76d 8c3d 3e6b 0e3e 8525 9abd 31f0 dcbd
00000310: 2afa b03d 4eac e63d 446a 783d 6769 123e
00000320: 8d9d d4bc e377 913c 07d9 2d3d 640b 0bbe
00000330: bc28 113d 9f79 0bbe f141 c7bc 70e6 103e
00000340: 8f7f 31bc 353f 86bd eccd 92bd 977b 9a3d
00000350: 0cb6 c2bd 790d 09be 409e 003e b24e 43bd
00000360: 2537 c63d f032 6abb 4d42 2c3d 8607 973d
00000370: 8ec1 093e 3533 1abd cd17 b33d dd46 ddbb
00000380: 5d88 96bd cc03 febd eef5 873d e814 f9bc
00000390: bcdb eebd adb3 41bc bcbd 693a 9c61 a8bd
000003a0: 9607 a33d 9578 9fbb 6de8 d3bd 4dd0 9c3d
000003b0: 08e2 0bbe a397 09be b1b0 e83c aaa2 5f3d
000003c0: 61c2 8b3d b235 5c3d 40aa 323e 31d3 71be
000003d0: 705d 423f 3571 e83d 0ce0 2dbd f587 0d3e
000003e0: d9ff bb3d e500 a3bb b9ff 323e f406 343d
000003f0: 04b7 a6bd a617 afbd 4129 d23d 53df a83d

net.4.bias f4 [48]
0.12609763 -0.01206863 0.12809417 -0.028475663 -0.004620618 -0.019256301 0.12643002 0.11554775
0.06382042 0.08875802 0.052624162 0.08396224 -0.1503582 0.08012149 0.057774387 -0.11473231
-0.025288904 -0.06814593 -0.09472817 -0.13041088 -0.12872532 -0.13708173 0.075803466 0.11159213
0.021269664 0.005446511 0.023741636 -0.050443012 -0.06768739 0.056766015 -0.04354845 0.036385987
-0.059464928 0.08391871 0.08729852 0.060334235 -0.11761817 -0.09567149 -0.11491144 -0.030888434
-0.14778562 0.0634756 -0.09339812 -0.12355626 -0.13582177 -0.12438634 0.085855424 -0.054637447
00000000: bd1f 013e 81bb 45bc 1e2b 033e cb45 e9bc
00000010: 8e68 97bb 64bf 9dbc df76 013e 4ca4 ec3d
00000020: 48b4 823d c4c6 b53d 6f8c 573d 65f4 ab3d
00000030: 80f7 19be bc16 a43d d6a4 6c3d c6f8 eabd
00000040: ad2a cfbc 1890 8bbd d800 c2bd 6e8a 05be
00000050: 92d0 03be 275f 0cbe d93e 9b3d 6a8a e43d
00000060: b83d ae3c a578 b23b d27d c23c 559d 4ebd
00000070: b09f 8abd 7b83 683d dc5f 32bd 7909 153d
00000080: 7f91 73bd 93dd ab3d 91c9 b23d 0821 773d
00000090: cce1 f0bd 6aef c3bd b056 ebbd be09 fdbc
000000a0: 1d55 17be 7fff 813d 8347 bfbd 100b fdbd
000000b0: dd14 0bbe 44be febd f8d4 af3d 84cb 5fbd

net.6.weight f4 [1, 48]
-0.11374554 0.11607706 0.037667386 -0.041923642 0.08843014 -0.10957722 0.10320466 0.12043759
-0.08003961 -0.049058247 -0.0044428515 -0.008252817 0.080016375 0.08442832 -0.0073725656 -0.09646376
-0.105301656 0.004467189 -0.07824231 0.20382813 0.026606223 -0.12084105 0.07742849 0.12580654
-0.110143796 0.09315659 -0.07565101 0.11161376 -0.00072181044 0.094558686 -0.12418511 0.0067643556
0.099476755 0.003600336 -0.0024639696 0.07164315 0.045584187 0.016754286 0.007840964 -0.0342101
-0.09200444 -0.07317302 -0.5085887 0.2548693 -0.1071877 0.01574554 -0.072379075 -0.12942219
00000000: 6cf3 e8bd cfb9 ed3d 1e49 1a3d 20b8 2bbd
00000010: dc1a b53d 066a e0bd f75c d33d fca7 f63d
00000020: cfeb a3bd 4df1 48bd 5795 91bb d336 07bc
00000030: a0df a33d c1e8 ac3d 9095 f1bb cb8e c5bd
00000040: 65a8 d7bd 7f61 923b 813d a0bd 52b8 503e
00000050: 4bf5 d93c 837b f7bd d492 9e3d 6ed3 003e
00000060: 1293 e1bd e2c8 be3d ebee 9abd c195 e43d
00000070: e137 3dba fca7 c13d c354 febd 87a7 dd3b
00000080: 78ba cb3d 9df3 6b3b 8d7a 21bb a5b9 923d
00000090: 7cb6 3a3d 4940 893c 6377 003c e41f 0cbd
000000a0: d36c bcbd bcdb 95bd de32 02bf 3b7e 823e
000000b0: 3a85 dbbd cafc 803c 7b3b 94bd 4087 04be
