Results/Archive_NNfile/pretrain_phy_18.pt (torch, 29735 bytes, 7 tensors)

net.0.weight f4 [48, 37]
00000000: b23c 3e3c 79f8 63bc fe22 1b3e 7c6d 223c
00000010: 52b6 0fbd db45 023e 82b4 3e3e e313 24be
00000020: 4dd7 40bd e5cc 203e ad81 08be 636f 24bd
00000030: 8904 283e 8688 97bc e469 a73d e33f 083d
00000040: 0ec8 5a3c 28ed 7d3b 6796 abbc ed15 68be
00000050: 5125 e73d 442f 01bb fa6b 553e 3ce5 c1bd
00000060: 1d21 38bd 112b 8abd 6648 163d f669 a93c
00000070: 4d52 303d 6abd 863d 2e80 5fbc c7f8 01be
00000080: 6e0e ec3d 0697 87bc 1da1 85bd 0891 a6bd
00000090: d4e9 c8bd 04c6 7d3d 8d5a b9bd f41d 7d3c
000000a0: 4cb1 e83c d447 a53d 9a6b b4bd 2883 b63d
000000b0: 7157 ed3d d563 34be 845a 9d3d c224 b6bc
000000c0: 3b4d c8bd 2a13 14be 93c6 24be 3566 c33c
000000d0: dc96 493d 3b41 7e3d 5809 f23d 6c48 ec3d
000000e0: fca1 14be e7aa e63c b11b 353c 4e53 e43d
000000f0: 0ab5 183e 9fcc 36bc 41f4 333d 7a89 ed3d
00000100: 024d dc3d eb5f cc3d 625d 7dbd 74b0 a23d
00000110: d333 51bb 4e42 6dbd 1899 ddbd 5ed9 1c3e
00000120: fc04 94bd 93a4 bd3d 942f 463e 31ca 70bd
00000130: 6fc8 063d fea3 d2bd ccff b33c 0afc d03d
00000140: acaf 49bc ebc4 1dbe 7f50 7d3d 7770 063c
00000150: 4794 943d 8c92 bb3d c1b3 08be 15fb f9bb
00000160: 709f bebd a402 fd3d 9d2d 3a3c e324 b6bc
00000170: cef8 afbd c0b0 f7bd db22 74bd 2ad0 80bd
00000180: d07a 5eb9 d6d1 afbd c327 08be 31cb 04bd
00000190: ec4d 95bd b003 09be 398d bdbc 27b8 17be
000001a0: 7666 94bd 3891 a7bd 920e 8cbc 67ce 8cbd
000001b0: 86e3 14bd efa0 e7bd 75a0 43bd 890a ea3d
000001c0: c8d4 093c bcbd b83c c147 a83d cdaf 2f3e
000001d0: f7a3 123e 7aa0 04be b23f 1c3c e4b3 28be
000001e0: 7e27 8cbd 7a5b 083e 53c5 da3c ef76 c83d
000001f0: e001 42bd 367e f73c 4f0a fd3d 0398 083e
00000200: c622 e8bd 3c31 3b3d 07b9 a23d 0573 103d
00000210: 6aa4 2cbd 9df9 3cbd 7b0c b23c 75b0 4e3d
00000220: acb2 3d3c d288 0ebe 2543 e9bc b53e 8bbd
00000230: 7eea d9bb e947 e1bd 0c54 123d c6b7 19be
00000240: 44e4 02be 3af6 92bd 3a38 813d 03cc c0bd
00000250: 1353 3abe 07ce d43d ea07 c43d c9a3 9fbd
00000260: 2864 073e 636d 8abd 247d a53d 80fa 2abe
00000270: 6aab 33be e3a8 dbbd 0947 02be 62a6 78be
00000280: e48f 8cbe 18fa 18be a21b 9ebe b7b8 60be
00000290: 3fb2 7ebe e1e1 50be 1f5a 6abe e8c2 3bbe
000002a0: 4751 1dbe 2ed2 a63d 6e29 a7bd 1af0 40ba
000002b0: b7e8 20be 86ef 3cbd 67e3 f2bc 51ca dfbd
000002c0: b3ff 953c e09b cdbd 6f16 753d 47c5 57bc
000002d0: ff3f 03bd 0a8d bcbd fdda b73a e0f0 d1ba
000002e0: 83ae 0bbe 5b31 4a3e 685b ddbb 6cf2 213e
000002f0: 61c8 34bd 86a1 113e af02 313e 1062 5c3e
00000300: fd4a 663d 2795 163e e62a 013e 4390 95bd
00000310: 7ce4 153e af0d b9bd 80d2 69bd fbdf 163e
00000320: 5983 61bd 9777 82bc cc3c ad3d 69ce 9d3d
00000330: 2300 db3d ee9b 1c3e 2fb4 ee3d 2073 073e
00000340: 5c59 e0bd 4f47 cf3b 1154 a1bd 43dc 0e3e
00000350: 57c9 8d3d 379c 32bb 3a61 c6bd 1841 b7bd
00000360: fa4a 95bc 6f9d c9bd 9c8c 9f3d 7eff ecbc
00000370: 7981 243d c21b b33d 5b4b c83d 141a 06bb
00000380: 2e33 f43d d581 223c af39 ed3d 2c83 a6bd
00000390: 0ffc b6bc b51a c73c 292e 183e 9e0b 013e
000003a0: 0f41 6e3d ce45 ec3d 5881 f73d 9c25 ccbd
000003b0: 450c cc3d 2fce 333e a949 d7bd 71ba e4bd
000003c0: 426f 5fbd 267b 9c3d ea09 f0bb 3148 36bd
000003d0: d850 d13d 7a20 02be 8da8 bbbd 5222 27bd
000003e0: e2b9 0e3e ddca ebbd 427b b23d bfed f4bd
000003f0: d9f4 06bd 52f7 84bc bd10 86bd c6c6 033e
0.011611151 -0.013914221 0.15150067 0.009913798 -0.035085984 0.1272196 0.18623546 -0.16023211
-0.047080327 0.15703161 -0.13330717 -0.04014529 0.1640798 -0.018497717 0.08174494 0.033264052
0.013353361 0.0038746092 -0.02094574 -0.22664614 0.112864144 -0.001971201 0.20841971 -0.09467551
-0.044953454 -0.067464955 0.03669014 0.020680409 0.04304724 0.065790966 -0.0136414 -0.12692557
0.1152619 -0.016551506 -0.065248705 -0.08133131 -0.09810224 0.06195642 -0.09050474 0.015449036
0.028404854 0.08070341 -0.08809586 0.08911735 0.11588944 -0.17616208 0.0768328 -0.022234324
-0.097803555 -0.14460436 -0.16091375 0.023852447 0.049216136 0.062073927 0.118181884 0.11537251
-0.14514917 0.028157664 0.011053965 0.111487016 0.14912811 -0.011157184 0.04393411 0.11598487
0.107568756 0.099792324 -0.061856635 0.07943812 -0.0031921759 -0.05792456 -0.10820216 0.15317294
-0.07227513 0.09259906 0.19354087 -0.058786575 0.032905992 -0.10285185 0.02197256 0.10204323
-0.01230995 -0.1540715 0.061844345 0.008205525 0.07254844 0.09158811 -0.1334982 -0.0076288083
-0.09307754 0.12354019 0.011363414 -0.022234386 -0.085923776 -0.12094259 -0.059603553 -0.06289704
-0.00021217321 -0.08584945 -0.13296418 -0.03242034 -0.07290253 -0.13380313 -0.02313863 -0.14816342
-0.072461054 -0.08181995 -0.017096791 -0.068753056 -0.036349796 -0.113099925 -0.047760446 0.11427791
0.008412547 0.02255141 0.08216811 0.17156906 0.1432036 -0.12951842 0.0095366705 -0.16474873
-0.0684347 0.13316146 0.02670542 0.0978831 -0.04736507 0.03021155 0.12355482 0.13339238
-0.113347575 0.04570125 0.079454474 0.03526594 -0.042148985 -0.046136487 0.021734467 0.05046125
0.011578243 -0.1391938 -0.0284744 -0.0679907 -0.006650268 -0.11000044 0.035724685 -0.1501151
-0.12782389 -0.0717587 0.063095525 -0.09413912 -0.18195753 0.10390859 0.09571822 -0.077949114
0.132218 -0.06759145 0.08080509 -0.1669712 -0.17545858 -0.10725572 -0.1272241 -0.2428222
-0.2745353 -0.14939153 -0.30880457 -0.21945463 -0.24872683 -0.20398666 -0.22885941 -0.1833607
-0.15363036 0.08145557 -0.08162199 -0.00073599967 -0.15713774 -0.046126865 -0.02964945 -0.10927261
0.018310403 -0.100394964 0.059835847 -0.013169593 -0.032043453 -0.092065886 0.0014027056 -0.0016017221
-0.1364079 0.1974539 -0.0067552812 0.15815133 -0.04413641 0.14221773 0.1728618 0.21521783
0.05622386 0.14705335 0.1261402 -0.07302906 0.14637941 -0.09035813 -0.057085514 0.1473388
-0.055056904 -0.015926166 0.08458862 0.07705385 0.106933855 0.15293857 0.11655461 0.1322751
-0.10954544 0.0063256393 -0.078773625 0.1395121 0.06923168 -0.0027253756 -0.09686513 -0.089479625
-0.018224228 -0.09844481 0.07790491 -0.028930422 0.040162537 0.08745529 0.09779998 -0.002046232
0.11923824 0.00991865 0.11583268 -0.08130488 -0.022336988 0.024304727 0.14861359 0.12602088
0.058167513 0.11536752 0.12085217 -0.09968111 0.09963278 0.17559122 -0.105120964 -0.111683734
-0.054549463 0.07640676 -0.0073254006 -0.04450244 0.10220498 -0.12707701 -0.09163008 -0.040804215
0.13938096 -0.115133025 0.08714916 -0.11959409 -0.03294835 -0.016231213 -0.06546161 0.12868795

net.0.bias f4 [48]
00000000: 4355 113e 9c24 52be eafc e93d 1682 613d
00000010: 1b25 a63d 8195 4bbb 6b56 53be 8ffc f8bd
00000020: 0b0c 8f3d cc72 84bd 3fd6 c8bd 72e6 f2bd
00000030: 78d7 013e eaa6 203e 3867 dcbc e63f 08be
00000040: e458 babd a156 e7bd 6807 893d 5df1 37ba
00000050: 9b1f 163e a855 113e 717f 16bc 4ed8 873d
00000060: 9aa0 123e e571 75bd 5b84 083e 58dd 76bd
00000070: a907 f03d 0268 ac3d 06e3 f0bc f41d 13be
00000080: 9ef9 983d be14 3a3d 4048 cb3d 5eff 0b3d
00000090: 64c0 433b bd19 cfbc 6ce2 e63c 95fd eb3b
000000a0: ce65 233e 9543 47bc 49e9 2cbe 8d32 b7bd
000000b0: 9ab6 403d b82b 58bd 0d0e 82bd 3ba2 c83d
0.14192681 -0.20521778 0.11425193 0.0550557 0.08112546 -0.0031064453 -0.20638435 -0.12157547
0.06984719 -0.06467208 -0.09806489 -0.1186036 0.12679851 0.15688673 -0.026904687 -0.13305625
-0.09098986 -0.1129582 0.06690866 -0.0007016862 0.14660494 0.14192832 -0.009185658 0.06633054
0.14319077 -0.05992307 0.1333174 -0.060269684 0.11720211 0.084182754 -0.029405128 -0.14366895
0.07469486 0.045429938 0.0992589 0.034179084 0.0029869312 -0.025280828 0.028184138 0.00720186
0.15956804 -0.012162109 -0.16885866 -0.08945189 0.047049142 -0.05277607 -0.06350336 0.09796568

net.2.weight f4 [48, 48]
00000000: e6bd 1b3d aeb4 2abe 575e 3d3e d66e 3e3e
00000010: a71a 053d 50e9 a43d bdac c6bd ed36 f6bd
00000020: f5af d33d 8265 f33d 1186 0f3e b7d3 9abc
00000030: 4bba f1bd 4ea6 053e 5d9c c0bd 95ed 673d
00000040: 206b 9c3d bed4 efbd 33c4 48be f358 9bbd
00000050: bdb1 6ebe 820e f0be eff0 fc3d e86b c93d
00000060: 370f 0abe cebf 17bd ceed 433e 057f dbba
00000070: 6573 ab3d 5f00 d9bd 4d73 e43d cbe6 c9bd
00000080: db19 053e ea11 e0bd 26ad bb3d 3521 78bd
00000090: 2f12 d2bd 6c2e 84bf 096a 643e e94a 05be
000000a0: 7344 6dbe 95ef 4e3d ee3c fdbb 90ae b23c
000000b0: a9d2 153e e429 02bd e620 b03e c341 0d3e
000000c0: 8825 cfbc b897 db3d 3805 ed3d d60a dd3d
000000d0: 2ca6 833d eb22 873d 6a30 393d 669b 003b
000000e0: 2bad 1bbd 142f 87bd e31b 943d ab46 3fbe
000000f0: 9782 763d 2e87 b4bd 7e26 633d c5ae 923d
00000100: 3d71 dcba bdc5 75bd 2d66 1abc 7392 a83d
00000110: 444c e83b 41f4 04be 0d4d fd3d 135e 993d
00000120: 2ce1 153d 08cb 193d 0e09 fa3c 3ca8 21bd
00000130: 8c94 9f3d cf35 54bd f490 e23d 72b0 083e
00000140: b192 863d 4cff 5f3d c20e c4bd 9005 1abd
00000150: 6298 b0ba a51d f13d 004d eabc 1adb f33b
00000160: aaba 173d 9553 b4bd 586e 3a3d dc99 b9bd
00000170: e5d8 8a3c ca24 d83d 9998 a43d d4f8 813d
00000180: 539a 4d3d 0852 84bd 5046 54bc ab18 f4bb
00000190: 8b57 9a3e d498 a0bd da1c a33b 371a c73a
000001a0: 4fee 353e 141f 8bbc eee2 27be 4cf7 4fbd
000001b0: 52d0 593d 54c6 463d b846 853d 23a9 e23d
000001c0: a414 0bbe 6f86 b13d bf39 bfbe 78a9 87bd
000001d0: 70ee ccbe 1bd5 4b3f 81cc 17bd e90f 6c3e
000001e0: b30e 4e3c 98e9 833e 61c2 9ebe 4f7f 6abe
000001f0: 6d5f a2bd 5b7e 743d e470 66bd a3a0 903c
00000200: 129b 133e 2b15 85bd 153f 353e abf1 323e
00000210: 74eb b6bd cd74 8ebd 3fbb b53c ec84 6b3d
00000220: 794b e63d 7664 443e 5c34 a3bd 7c11 8f3d
00000230: c298 92bd 3e64 b0bd ae32 38bd b27c 3ebb
00000240: 2d53 01bd 81d5 79bd 3c90 483e 0ee0 0bbe
00000250: a106 663d 2fcc 07be 5a31 e83d 176b 81bd
00000260: 3562 81be 685c abbd 9c32 2cbe 706f e2bd
00000270: 7634 053d 7fab d43d f6f4 b2bc dd5a 823d
00000280: 5a8e 28bd dbe0 e9bd 6ba3 f9bc 79c9 413c
00000290: 7b74 88be b8b8 ae3e abc0 22be fefe 7abc
000002a0: 41e0 12bd 781a a93d 55a3 bd3d 3378 a0bb
000002b0: 0a50 1b3e 81b6 17bd 9adf 27be 459d dabd
000002c0: dd01 92bc 0f4b 22be c5e2 aabd 55b9 4ebe
000002d0: 28bb 8c3d 1898 15bc 9ae4 fabd c3cd ed3c
000002e0: 3024 0bbe 4718 0839 3a03 5d3d d3d0 c0bd
000002f0: 889d 823c 298f 0ebe d451 f3bb c107 6dbc
00000300: 2e32 903d dd72 c9bd c09c 553e f0ae abbb
00000310: 5cc6 ee3c 451f 04bd 25d9 613d a03d 8cbd
00000320: a8a4 c23c ac91 a4bd 63d7 353e 3c1b ba3b
00000330: 9775 953d 7ee4 0abb 8390 a7bd 8f06 9a3d
00000340: a17c 323d 3d73 e83c 7c17 93bd 3651 48bd
00000350: d128 f53d efe8 38bd 3b90 a8bd 76e7 bbbd
00000360: eeb9 993d 737d 063e 908b 653d 2433 4d3d
00000370: 1a08 2e3e 9d75 ca3d fb43 6bbd 06b1 c03d
00000380: 861b 35be 0477 d5bb da2c 883d 27b9 5c3d
00000390: d995 373b aa27 29be d3a3 82bd 5954 e03d
000003a0: 098b 353d 4087 fe3d b98e 113e 95f2 973d
000003b0: 9081 6ebd c850 77bd 4a1a 133e 84f6 9b3d
000003c0: f2b5 6abc da60 56bc ad1b bdbd 097b 99bc
000003d0: 7c1b 93bd 6542 073d bff8 dfbd 1157 5dbd
000003e0: 9a5b 42bd a933 d33d e5c1 c6bc d02a 3dbe
000003f0: b8af ac3d 8475 a7bd 1be5 ac3d 3744 2f3d
0.0380229 -0.16670486 0.18493019 0.18596968 0.03249612 0.08052313 -0.09700916 -0.12022195
0.103362955 0.118845955 0.14015986 -0.018899782 -0.11803111 0.13051721 -0.09404824 0.05662306
0.0763762 -0.11710499 -0.19606094 -0.07585325 -0.2330999 -0.4688607 0.12350642 0.098350346
-0.13482367 -0.037048154 0.19133684 -0.0016746229 0.08371619 -0.10595774 0.111548044 -0.098584734
0.12998144 -0.10940917 0.09163885 -0.060578544 -0.102573745 -1.0326667 0.22306074 -0.13016857
-0.23170643 0.050521452 -0.0077282107 0.021811754 0.14631142 -0.03177823 0.344001 0.13794617
-0.025286451 0.107222974 0.11573261 0.107930824 0.06428179 0.06598457 0.045212187 0.0019623875
-0.038006943 -0.06600776 0.072318815 -0.18679301 0.060183134 -0.08814846 0.05545663 0.07162241
-0.0016818416 -0.06000303 -0.009423775 0.08231058 0.0070891697 -0.129838 0.12368212 0.07488646
0.036591694 0.03754714 0.030521896 -0.03946708 0.07792005 -0.05180913 0.11062804 0.13348559
0.06570948 0.05468683 -0.09573127 -0.03760296 -0.0013473148 0.11773232 -0.02860117 0.0074418904
0.03704325 -0.088050045 0.04551539 -0.090625495 0.016949126 0.10553892 0.08036918 0.06346288
0.050196003 -0.06460959 -0.012956217 -0.0074492297 0.30144915 -0.0784165 0.0049778046 0.0015190308
0.17766689 -0.016982593 -0.1639516 -0.05077295 0.053177185 0.048528984 0.06507629 0.110674165
-0.13582093 0.08668219 -0.37348744 -0.066241205 -0.40025663 0.7962205 -0.037060264 0.23052944
0.012576747 0.25764155 -0.31007674 -0.22900127 -0.07928357 0.059690814 -0.056260005 0.017654723
0.14414623 -0.06498178 0.17699845 0.17475002 -0.08931628 -0.06955872 0.022184012 0.05749981
0.11244864 0.19178948 -0.07968971 0.06985757 -0.071580425 -0.0861287 -0.044970207 -0.0029066023
-0.031573463 -0.06099463 0.19586271 -0.13659689 0.056158666 -0.13261484 0.11337538 -0.06319254
-0.2527024 -0.083672345 -0.16816181 -0.11056411 0.032520734 0.10384273 -0.021845322 0.06364987
-0.041151382 -0.11419841 -0.030473432 0.01182782 -0.26651368 0.34125304 -0.1589381 -0.015319584
-0.035858396 0.08257002 0.09259669 -0.0048971414 0.15167251 -0.037039284 -0.16393891 -0.10674528
-0.017823154 -0.15848945 -0.08344034 -0.20187886 0.06871635 -0.0091305 -0.122506335 0.029028779
-0.13588023 0.00012979015 0.053958155 -0.0941483 0.015944257 -0.13921799 -0.007425526 -0.014467181
0.07040821 -0.098363616 0.20860577 -0.00523936 0.02914732 -0.032256383 0.055138726 -0.068476915
0.023760155 -0.08035597 0.17757945 0.005679516 0.07297819 -0.002119332 -0.0818186 0.07520782
0.043575887 0.028375262 -0.07182214 -0.048905574 0.11970676 -0.045144018 -0.08230635 -0.09175007
0.075061664 0.13133793 0.0560413 0.0500976 0.16995278 0.09885714 -0.057437878 0.094087645
-0.1768628 -0.006514432 0.0664918 0.053887513 0.00280129 -0.16519037 -0.06378903 0.10953588
0.044322047 0.12428141 0.142146 0.07419316 -0.05822903 -0.060379773 0.14365497 0.076153785
-0.014325606 -0.013084615 -0.09233794 -0.018735426 -0.071829766 0.033022303 -0.109361164 -0.05403811
-0.04745064 0.10312588 -0.024262378 -0.18473363 0.08431953 -0.08176711 0.08442136 0.042789664

net.2.bias f4 [48]
00000000: 0003 94bd ff16 133d 7b7f d33d e66b 4a3d
00000010: 69cd 53bd 8421 003e b246 85bc 6de1 643d
00000020: 764b 503d 46cf 05be 6910 893d 60b3 383d
00000030: a86f 71bd 41bc 88bd 98d9 39bd e772 c53c
00000040: 990a 783d d9da 05be f6bb 05be a4fe 863d
00000050: 2d1f 883d 4cf9 ab3c 05e7 be3d 0e76 20bd
00000060: 81fc aebd 97b6 c1bc c6df c6bd cc28 e4bd
00000070: 4167 ed3d 95c4 11bd e940 fd3d 47e6 093d
00000080: 0417 453d fe42 6c3d 77c1 ed3d 4511 26bd
00000090: c899 9dbc 5691 82bd 307b 89bc d65f 6c3c
000000a0: 7f6b ab3d e6ad dabd 1a13 0b3e 3ce2 4c3d
000000b0: a6ef 93bd 42d1 cd3c 648c dbbd 4d76 823d
-0.07227135 0.035910603 0.10327049 0.049419306 -0.051709566 0.12512785 -0.016269062 0.055879045
0.050853215 -0.1306735 0.06692583 0.04509294 -0.058944374 -0.066765316 -0.04537353 0.024102641
0.06055698 -0.13071765 -0.13059983 0.065915376 0.06646571 0.020992897 0.09321407 -0.039175086
-0.08544255 -0.023646636 -0.0971065 -0.11140594 0.1159196 -0.035587866 0.12365896 0.033666875
0.048117653 0.057681076 0.11609166 -0.040543813 -0.019238368 -0.06375377 -0.016782373 0.014427146
0.08370113 -0.106777 0.13581505 0.05002044 -0.07223444 0.025124196 -0.10720137 0.0637022

net.4.weight f4 [48, 48]
00000000: 8b9e 0b3e 37ad d0bd e988 8dbe 53f5 a03c
00000010: ac17 0c3e 39ce 4ebd e221 97bd e258 a63c
00000020: e9ea 2ebe b404 7a3d ad8f 21bd 357d 193e
00000030: 4f7d ec3d 8874 9d3d 0e3b e9bd 10f5 003e
00000040: 15ac e4bd 2df2 0f3d 1dd3 a9bd 2651 40bd
00000050: 32b0 813d 5961 253f e3c8 383e 6d34 d13d
00000060: 7476 a83d 0bf7 0b3e b362 163e 64f1 84bd
00000070: f5fa 9fbe c918 83bd 5ddd ce3d ddd6 d0bd
00000080: bca7 a63d a68a 2c3e 01e0 3c3d 0df4 023e
00000090: 5505 8ebb 8a06 df3c 0883 803d ab6b 263a
000000a0: 73da c33d abdb 083e e959 153e d2cc 9bbd
000000b0: bac0 d8bd b0fd 7f3d fa8a 0e3e cb37 23be
000000c0: 69f1 6fbc 0108 313d 986d 3fbe 8cd1 b3bd
000000d0: 787e 023e 80b2 fbbd eabb 93bd 44ba dcbd
000000e0: 1db9 0cbe 0400 f03d 82df f43d c6be e23d
000000f0: b49f 44b9 8137 b9bd d6a4 0dbe b3d8 e03d
00000100: 289a d7bd 9f04 373d 7b6d b03d 9e1d c2bd
00000110: 6f31 d2bb 17a9 96be cb96 87bc 6a32 9b3d
00000120: eda0 6a3d 8bf5 d8bd 4655 45bd 39cb 073d
00000130: 3c27 e03d eebb 09be 9ed2 1b3e 4596 083e
00000140: 5a0f 0d3e 5f7c febd 2bb8 ee3d 6410 94bd
00000150: fd39 4ebd 4fdb cd3d ee71 053d 63b3 03bd
00000160: 6fc0 d13d 4ac3 513d c5ce e23c f086 c5bb
00000170: 2d10 1ebe 3a19 943d 1a6b 393d 66ab 3d3d
00000180: 911e 4d3d 8b48 f63d 4453 72be b337 eebd
00000190: 9c6b d6ba 76ab 7bbd 2ada bb3c 9729 0e3e
000001a0: a884 4abe 1117 3d3b 0839 90bd d91a b4bd
000001b0: 024d b9bc beb4 f6bd 82bd 0dbe c46e ccbd
000001c0: c73d 82bd e68f 0ebd a75b c63c 28f8 e1bb
000001d0: 2bf3 00be f80c 423f f116 8e3d 2c45 17bd
000001e0: 76e6 743d fb54 ee3d 4423 83bd 33f7 173d
000001f0: 3808 0bbf 9bb8 d53d f6c4 b7bc 396d 2ebf
00000200: 9fae 133e 8f12 a4bd b1e1 93bc c9c1 243e
00000210: d4e9 e43d 718a b53c b7f3 dc3d c138 383b
00000220: 6e6e 9e3d ce5f 043e e604 a4bd cf1b 163d
00000230: 5fd4 2abe ea12 833d ea68 8e3d e5d1 4fbe
00000240: 50a6 1b3e 5ed0 cebc 165c 353c 7e41 d53d
00000250: db8a 14bd ee7b d83d 206c 3bbc 66a7 053d
00000260: b9fe 7dbc d53c ab3c 866a 62bd bdc8 f5bd
00000270: 34d8 683d 2fbe 083e acd5 7a3d 56cd 41bc
00000280: 02cd 023e 5bc6 483d f2e1 4f3d 9476 b2bb
00000290: 7e71 a7bd fc76 babe c3bb b0bc ac64 b83d
000002a0: fad9 06bb 4e2c 573d 8d3a a43d 7e56 0e3e
000002b0: 2082 40bd c04d 943d 87e3 b3bc 17c1 3a3c
000002c0: 82e4 b9bd 278c 2abd 8868 7ebd a8ab c73b
000002d0: 13cd 89bd d72e edbc 69d8 833a fd90 a23d
000002e0: 11c9 0b3e 1a9b a33d 8fe9 073e 7aac 003e
000002f0: 2ff2 f9bd 3ae8 d83d cdc0 c63b d36c 9f3b
00000300: 4a76 643c 6564 5d3d 2880 cabd 5b57 73bd
00000310: 9551 1fbd dd6e 093e f104 3c3d 8d15 edbd
00000320: cda3 a2bd 0073 e03d 2955 063e c16b 63be
00000330: a2e7 11be 4698 603d 9ac1 bfbc c4ea f9bd
00000340: 28f0 c3bd 3f14 853c 1462 7c3d 6222 f33d
00000350: 6dff 07bd be61 cf3d 5d80 bd3c cca1 acbd
00000360: ae43 6a3c 2807 66bd 3dc8 56bd 746f cfbc
00000370: 41ca 553c f4a2 063e 38f2 033e e80e f2bd
00000380: a03a 973d 284c 163e 0448 c4bd a799 37bc
00000390: 0055 b73d 95d8 643b a12c 1cbd 4f93 d13d
000003a0: 27dd f9bd cec9 14bd ca93 a23d ba9f 9fbd
000003b0: ae96 d53c 3f74 fbbd 48c3 103d 2e6c 39be
000003c0: 27ef 7fbd 1ddb fbbc 628a 0e3e a4bc be3d
000003d0: 4229 16be a21a 1c3d c58c b03d 9dee 40bb
000003e0: 9e2a c3bc 7a93 0b3e d8fe 043e 6888 263d
000003f0: 880e b9bd 9593 5d3d 6091 25bd c4ff 163c
0.13634698 -0.10189288 -0.27643517 0.01964823 0.13680905 -0.050489638 -0.073795095 0.020306055
-0.17081799 0.06103964 -0.03944366 0.14989169 0.11547338 0.07688242 -0.11388217 0.12593484
-0.111656345 0.035143066 -0.0829222 -0.04695239 0.06332435 0.64601666 0.18045382 0.102150775
0.08225718 0.13668458 0.14686088 -0.06491354 -0.31246153 -0.06401212 0.101008154 -0.10197232
0.081374615 0.16849765 0.046112064 0.1278841 -0.0043341317 0.027224798 0.06274992 0.0006348441
0.0956315 0.13365047 0.14585079 -0.07607426 -0.10583635 0.062497795 0.13920203 -0.15939252
-0.014644959 0.043220524 -0.1869415 -0.08780202 0.12743556 -0.122899055 -0.07213576 -0.10777715
-0.1374249 0.11718753 0.11956693 0.110715434 -0.0001875151 -0.0904379 -0.13832411 0.10978832
-0.1052745 0.04468214 0.08614632 -0.09478305 -0.0064145843 -0.2942588 -0.016551396 0.07577975
0.057282377 -0.105937086 -0.048177026 0.033152793 0.10944983 -0.13450596 0.15217063 0.13338573
0.13775387 -0.12426066 0.11656221 -0.07229689 -0.05034827 0.100515954 0.032579355 -0.0321535
0.10241782 0.051211633 0.027686486 -0.0060280487 -0.15435858 0.07231374 0.045268156 0.046306036
0.05007798 0.12025555 -0.23664576 -0.116317175 -0.0016358974 -0.061442815 0.022931177 0.13883053
-0.19777167 0.002885286 -0.07042128 -0.08794183 -0.022619728 -0.120461926 -0.13841823 -0.09982064
-0.06359439 -0.0348052 0.024213625 -0.0068960376 -0.12592761 0.7580104 0.069379695 -0.0369312
0.059790097 0.116373025 -0.06403211 0.037100982 -0.54309416 0.10435601 -0.022432785 -0.6813541
0.14422081 -0.08011352 -0.018051954 0.16089548 0.11177412 0.02216074 0.107886724 0.002811
0.077359065 0.12927172 -0.08008747 0.036647614 -0.16682576 0.06400092 0.069536045 -0.20294912
0.15200162 -0.025245842 0.011069318 0.10412882 -0.036265235 0.10570513 -0.011439353 0.032630347
-0.015502625 0.02090303 -0.05527737 -0.120011784 0.056846812 0.133538 0.06123893 -0.011828741
0.12773517 0.04901729 0.050752588 -0.0054462645 -0.08175944 -0.36418903 -0.021573907 0.09003577
-0.0020576701 0.052532487 0.0801898 0.13900182 -0.046999097 0.07241392 -0.02195908 0.011398575
-0.090767875 -0.041637566 -0.062111408 0.006093461 -0.06728568 -0.028952999 0.0010059002 0.079378106
0.1365092 0.07988568 0.1327269 0.12565795 -0.12204396 0.10591169 0.006065464 0.004865268
0.013944218 0.05405082 -0.09887725 -0.05940948 -0.038896162 0.13421197 0.04590315 -0.11576376
-0.07941399 0.109594345 0.13118424 -0.22209074 -0.14248517 0.05483272 -0.023407746 -0.12202981
-0.095672905 0.016245006 0.061616972 0.118717924 -0.033202577 0.10126065 0.023132497 -0.08429298
0.014298363 -0.05615917 -0.052437056 -0.0253217 0.013048709 0.13148099 0.12885368 -0.118192494
0.07384229 0.14677489 -0.095840484 -0.011206067 0.08951759 0.0034919132 -0.0381285 0.10233175
-0.122003846 -0.03632527 0.07938345 -0.07794137 0.026072826 -0.122780316 0.035342485 -0.18107674
-0.062483933 -0.03074413 0.13919976 0.09313324 -0.14664176 0.038111337 0.086206 -0.00294391
-0.023824032 0.13630477 0.1298784 0.04065743 -0.09035975 0.054095823 -0.040421844 0.009216253

net.4.bias f4 [48]
00000000: 8823 81bd 0f64 f03d 3242 103d a05f 233d
00000010: cd93 32bd b4a4 15bd d8f9 ca3d a080 3c3d
00000020: 5250 183d 0e96 a03d 4e98 913d f7b7 6ebc
00000030: 2c25 ae3c 4a72 063e f677 07be 0de6 97bd
00000040: dbf2 f9bd 3ada a3bd df04 a2bd 1c0c 14be
00000050: d84e 62bd 9fb9 803d ffcc 453d 9beb 043e
00000060: 4de2 9abd 67da 703d c6bf 4a3c 66be 04be
00000070: 58e5 ad3c f27c a03d 3ecb 443d b1f5 e73c
00000080: 59a6 0dbe 91d8 a23d e77e ac3d 02d2 943d
00000090: 9f0a e4bc 483f 633d 70e7 0fbe 2342 b33b
000000a0: 4ece 993c e6b0 e0bc aba7 8b3c 4f6f ef3d
000000b0: 967e d9bd a721 f73b b439 663d 71d2 2db9
-0.06305605 0.11737835 0.03521938 0.039886117 -0.043597985 -0.036534026 0.09910935 0.046021104
0.037185974 0.07841121 0.07109128 -0.014570228 0.02125796 0.13129535 -0.13229355 -0.074169256
-0.12204524 -0.08000608 -0.07911085 -0.14457744 -0.055250973 0.062854044 0.048291203 0.12980501
-0.07562695 0.058802035 0.012374824 -0.12963256 0.021227524 0.078363314 0.04804539 0.028315397
-0.13832988 0.07951463 0.08422642 0.07266618 -0.027837096 0.05548027 -0.1405313 0.0054705306
0.018775132 -0.027428102 0.017047724 0.11691152 -0.106198475 0.0075418535 0.056207374 -0.00016576961

net.6.weight f4 [1, 48]
00000000: a347 8c3d a16f f33d 31ff fc3d f02d 483d
00000010: 0203 a83d 268f 0cbe 4018 5f3d 8445 abbd
00000020: c7aa ce3d 10aa 3bbc 38be 36be 200b b53d
00000030: 4d2f e5bd aae2 bd3d e8e2 0abe c9b4 3ebe
00000040: cb80 013e 1619 52bd 86af 6f3d 9a07 98bc
00000050: 0b72 e03d d4da e63b 5163 ccbd 21cf 803c
00000060: 9fb7 253b 978f c83c 78c7 4dbe 4676 e1bd
00000070: 1655 013d 3653 20be bee8 7c3d 2020 523e
00000080: 934f 3dbc 38fe 713d f61f 003e 5b17 bdbd
00000090: e442 4a3d 572e 7bbe 0946 66bd f676 ea3c
000000a0: 259e 4f3c f401 1a3c 2e3e d53b b442 c2bb
000000b0: e89b cd3d ca6d 053e 1ab0 083e e52c 29bd
0.06849601 0.11886526 0.123533614 0.048871934 0.08203699 -0.13726482 0.054466486 -0.083628684
0.10091167 -0.01145412 -0.17846 0.088400126 -0.111906625 0.09271748 -0.1356312 -0.18623652
0.12646787 -0.051293455 0.058517 -0.018558312 0.10959252 0.0070451293 -0.099798806 0.015723767
0.0025286449 0.024482531 -0.20095623 -0.11008887 0.031575285 -0.15656742 0.061745398 0.20520067
-0.0115546165 0.059080333 0.12512192 -0.0923297 0.049380198 -0.24529396 -0.056219134 0.028621178
0.012671982 0.00939988 0.0065076565 -0.005928362 0.100395024 0.13030162 0.13348427 -0.04130258
